ribodetector/data/model_len70_101.onnx (onnx, 553816 bytes, 5 tensors)

227 f4 [2, 1024]
00000000: 765b 08be 1e5e 74be dbc0 6cbf d220 99be
00000010: d70b 14be fa0c 9fbe 78fc 48bf 644d ccbe
00000020: f2bb 1abf 338a 32be 5248 1cbf 288e b23d
00000030: e3df 20bf d8fd cdbe 7af1 0ebf ba1a dcbe
00000040: 6832 27bf dd45 e8be a15c 20be 13ac 84be
00000050: 92bb 3abf bc2a 12bf f756 2abf ba64 9e3e
00000060: 06ad 17bf d87b 4b3b 2265 5d3d feb6 0cbf
00000070: 0fe8 22be 98f8 3cbf 08d4 0abf d6f0 07bf
00000080: 43ff 55be 2b75 03bf 56ba 91be 4cc7 eebe
00000090: 86e7 96be 4fc1 b63e f85d b5be 48a1 a6be
000000a0: d9cf b9be 3e27 2fbf 6438 19bf f39c 07bf
000000b0: 0fb3 9dbe 3201 fdbe 93f8 00be ea62 84be
000000c0: 9c4b 10bf 48b2 d4be ddc3 15bf 5cda 61bf
000000d0: 5bb7 0fbf 2995 ecbe 3c6d 67be 6796 38be
000000e0: ca25 88be edb3 2bbf e531 383d 8b7b 26bf
000000f0: ca7a 1fbf 5443 56be 4383 c3be 8dc1 583d
00000100: 2321 ddbd dea9 e5be 1e84 103f 2d2a 28bf
00000110: bb03 e6be ba36 1dbf 8484 abbe af00 abbf
00000120: 851c 95bf 82c6 b6be 1639 27bf cae5 66bf
00000130: a7fd 9cbe 3bf1 65bf b83c a6be 936b 13bf
00000140: f0ec 72be ca28 41be 9c24 f1be 6628 ccbe
00000150: 725e f5bd 4be7 e5be e658 b4be 3d91 5cbe
00000160: 95f3 0f3d 2657 d6bc b185 0fbf e80a ebbe
00000170: 03ef 08bf c902 87be 9d52 81be b6b9 2fbf
00000180: fa86 64bd 3f58 02bf e043 33be 8b95 4cbd
00000190: ca41 1dbf 5b55 e3be a586 d4be f175 09bf
000001a0: 2117 7c3e d829 24be b18a 8dbe 932e 23bf
000001b0: 229c 2ebd 01d3 29bf 3aea b1bf d28b 0dbe
000001c0: 2d16 ff3d 6754 1fbd e429 c5be 5f4a 92be
000001d0: 7f60 b6be 0926 2bbf e666 d4be aa90 39bf
000001e0: f6ea 07bf dbbb 7cbf 2f5f 41bf a0ce 29be
000001f0: a0a8 3dbe 1ead 04bf cbad c2be 92ab 85be
00000200: aba5 013f 52c5 8bbe 2089 2a3f 0cb5 f2be
00000210: edb4 0c3e 8de8 96be e948 e3be 6bd2 0f3e
00000220: 39bc 14be adcb 7fbe 045f c9be bc17 ce3d
00000230: 4b3b fa3d 7f16 89be 8674 d93b 23f3 62be
00000240: 0111 febe 69cd 023d 79fa 933e 5383 e0be
00000250: 5663 7bbe 89e2 8bbe 037a 1bbe 04fe a03f
00000260: d55e 50be d900 8bbe 657d 83bd 549e 97be
00000270: 95ef 07bc bdb7 e8be 1c99 07bf 434e 04be
00000280: b703 4abb 040b 5bbd 5a7c f1bd 07ef 9b3e
00000290: a322 88be 7ec0 97be eb27 81be c8ec 4ebe
000002a0: 6457 f6bc 3b98 c7be 0bdd ffbe aa71 963e
000002b0: 4ccb a2bd b881 e1bd e52f a7be 7ba1 a1be
000002c0: 9ab9 cbbe 1d57 e93b 6ee8 cdbc d88c 90bd
000002d0: 99ee cfbd 5fad f9be 1b37 67bd 694f 9e3e
000002e0: ce71 69bd 1d8c f8be 0781 de3e 833f 39be
000002f0: f10e b8bd a4d8 75be 43d7 99be 8bdf 22be
00000300: 641b aabb d9b1 583d 4605 5d3f 18a2 88be
00000310: e392 e5be 2a02 6ebe aa35 88bd ba32 95be
00000320: a602 10be bc07 70be 0c45 12be 8201 ddbe
00000330: aedb 4bbd 029f 753e 4920 00bf 05bd 05bf
00000340: 6a5c f2be cf92 10be 6c53 94be 89c3 8bbd
00000350: 84b6 9cbe ba96 70be 00ca 263d 3207 843d
00000360: 5bd8 903e 93ad 82be dff8 a7be 329e efbe
00000370: 1e7f 94be 3da1 07be 17ce d9be 5841 93be
00000380: bce1 df3d f8ff 8cbe 8d09 383e fbfd 983e
00000390: 8270 a5be 69e1 b1be 59f2 15be 1ee8 993d
000003a0: e460 913e 8ab5 39be c564 83bd b4de c3be
000003b0: 5469 a63c 06a9 b4be 44b6 0e3f 38fe c9be
000003c0: 00cc cb3e c0ec a0bd b3b0 35be 08e6 acbe
000003d0: a4c3 20be b35a 84be f6c1 93be 3771 e3be
000003e0: 889b 29bf 98a1 cbbe 294f c3be 2bd1 993b
000003f0: ab10 bd3d 66b0 1cbf b6ec 31be 2fde d2be
-0.1331614 -0.23864028 -0.92481774 -0.29907852 -0.14457642 -0.31064588 -0.78510237 -0.39902794
-0.6044303 -0.17435531 -0.6104785 0.087185204 -0.62841624 -0.4023273 -0.55837214 -0.4298914
-0.6531129 -0.453658 -0.15660335 -0.25912532 -0.7294246 -0.5709646 -0.6653895 0.30936223
-0.5924839 0.0031049158 0.054051526 -0.54966724 -0.15908836 -0.73816824 -0.54229784 -0.5310186
-0.20898156 -0.5135066 -0.28462476 -0.46636426 -0.29473513 0.35694358 -0.35423255 -0.32544923
-0.36291388 -0.68419254 -0.5985167 -0.5297386 -0.30800673 -0.49414974 -0.12594824 -0.25856715
-0.5636537 -0.41542268 -0.5850199 -0.88223815 -0.56139153 -0.4620755 -0.22600263 -0.18026124
-0.2659133 -0.6707142 0.044969458 -0.6503226 -0.62296736 -0.20924121 -0.38186082 0.05291896
-0.10797336 -0.4485616 0.56451595 -0.65689355 -0.4492472 -0.6141163 -0.3349954 -1.3359584
-1.1649328 -0.35698324 -0.6532148 -0.9019438 -0.3066227 -0.89821213 -0.324682 -0.5758602
-0.23723197 -0.18863216 -0.47098243 -0.39874572 -0.11980905 -0.44903025 -0.35224074 -0.21539779
0.035144407 -0.026164602 -0.5606337 -0.45906758 -0.534897 -0.26369312 -0.2525834 -0.6864275
-0.055792786 -0.509159 -0.17506361 -0.049947303 -0.6142851 -0.4440106 -0.41508976 -0.5369559
0.24618198 -0.16031587 -0.27644876 -0.6374294 -0.04262937 -0.6633759 -1.3899605 -0.13822868
0.124554016 -0.03889885 -0.38508523 -0.28572366 -0.35620496 -0.6685491 -0.41484755 -0.72486365
-0.53092897 -0.98724145 -0.75535864 -0.16582727 -0.18521357 -0.51826656 -0.3802322 -0.2610746
0.50643414 -0.2729898 0.66615486 -0.47403753 0.13740893 -0.29474297 -0.44391564 0.14045112
-0.14524926 -0.2498004 -0.39330304 0.10063121 0.122183405 -0.26774976 0.006636205 -0.22163062
-0.49622348 0.031934176 0.28902033 -0.43850192 -0.24549612 -0.2732127 -0.15183263 1.257752
-0.20348676 -0.27149084 -0.064204015 -0.29612982 -0.008296867 -0.4545268 -0.52968 -0.1292048
-0.0030824968 -0.053477302 -0.11791296 0.304558 -0.26588926 -0.29639047 -0.25225767 -0.20207512
-0.030070968 -0.3898333 -0.4997333 0.29383594 -0.07948932 -0.1101107 -0.32653728 -0.31568512
-0.3979004 0.0071209804 -0.025135245 -0.07058114 -0.10152931 -0.48765084 -0.056449037 0.3091996
-0.0569933 -0.48544398 0.43457815 -0.18090634 -0.08987225 -0.24008423 -0.30047044 -0.15905587
-0.0051912535 0.052903984 0.8633617 -0.26686168 -0.44838628 -0.23243013 -0.066508606 -0.29140264
-0.1406351 -0.2344045 -0.14284152 -0.43165213 -0.04977005 0.23986438 -0.50049263 -0.52241546
-0.4733613 -0.14118503 -0.28969896 -0.06824405 -0.30607998 -0.23494998 0.040719986 0.06446685
0.28290066 -0.25523052 -0.3280706 -0.4680038 -0.29003233 -0.13245101 -0.42540047 -0.2876079
0.10931727 -0.2753904 0.17972393 0.29881272 -0.323124 -0.34742287 -0.1464323 0.07514976
0.28394234 -0.18135658 -0.06415705 -0.38255847 0.020313896 -0.35285205 0.55746865 -0.39451766
0.39804077 -0.078576565 -0.17743187 -0.3376925 -0.15699631 -0.25850448 -0.28858918 -0.44422314
-0.66252947 -0.39771724 -0.38146332 0.004694124 0.09231695 -0.6120666 -0.17375454 -0.41185138

228 f4 [2, 512, 4]
00000000: 4796 e9be bb6e 9dbf 11b9 88bf 9c66 17bf
00000010: 3f76 3dbf 38f2 1abf be33 d23e d1f1 33bf
00000020: cfd2 98bf 273d ddbf ccc6 bebf ed55 b4bf
00000030: 47a7 b3be 1a12 38bf f2a0 583e 0bcf d3be
00000040: 3664 19bf 096d ef3e 6b4d 2cbf 83b8 7f3f
00000050: 32dc 923e 9fcf a3bd b6ff 0f3f 3368 7c3e
00000060: 6c52 663f 7f7b 9c3d 26f4 e8be f78b 643e
00000070: 8690 a0bc 9429 103e 6dc1 6f3e 4721 2bbf
00000080: bae5 823e 1a7a 2cbf c238 1e3f 6aaa d6bc
00000090: 8a65 403d 9bf5 173e 5394 b6be 84f7 67bf
000000a0: 3d6c bbbe ccaf a0be 60dc 99be 2f9d 97be
000000b0: 0de5 463e 265c 12bf 0f59 38bf b1dc d93f
000000c0: 60a4 37be c7d8 9fbe cfbd a7bd e582 003d
000000d0: 7bd5 c43e 6267 d33e 0100 123f 1336 b03e
000000e0: 2ad0 413c 4dd5 a7be 7dd2 d93c 6348 ef3d
000000f0: 6848 b13e fa58 d63e 9bdd 823e 06c2 5c3e
00000100: d58a 93be e56a f03e 4659 e8be 2654 673e
00000110: ce9e b1bc e6b8 ebbe 8f48 373e 8363 5e3e
00000120: 81b5 84be 460b 76be 46f8 2c3e 2f73 75be
00000130: 7155 aabe dab6 f6ba 7335 c2be 449a 81be
00000140: 34c2 6ebe 2259 95bd c81a 1ebf 274a 98be
00000150: 5df0 2dbe 4942 ddbe 1f55 a2be 27b3 c63d
00000160: a097 7cbd d455 483e a0a3 74bf 55f0 8ebe
00000170: 1cf7 093f 1c4f cc3d 8af6 423e 558b a63e
00000180: f863 31be 624c 1bbf 5d13 623b f41b 5dbe
00000190: df2c 883e a142 2b3f e9a4 073f 0bac e2bd
000001a0: 3bec ec3e f007 38bd 56d0 8338 f186 43be
000001b0: 3416 d83e 82a2 1abf 5f86 15be 18d4 08bf
000001c0: 2347 03bf 7b74 5b3d d453 3ebf 8c65 fc3e
000001d0: c53d eb3e 1104 6dbd 326c 143e eda8 92bf
000001e0: 48b5 013e eaa8 05be 9939 3c3e fbdc f53d
000001f0: 7c74 19bf 8578 5bbe 6993 91be d588 9d3e
00000200: 6896 86be c238 c1bd bb6f 81bf 7d28 693e
00000210: 7833 2f3f eb31 5ebf d580 04bf 1a19 2bbe
00000220: f4b4 babb 213e 09be 9855 be3c 5689 e43e
00000230: 8269 25be 14eb 00bf 1c94 73bd 1a56 48be
00000240: a127 8cbe 4d8c 34bf 1ecb 9ebe 0487 c5be
00000250: 73db 7a3d cf02 1dbf df2e 88be 86c7 033f
00000260: 64a4 353e 3caf 0dbf 4b6d 28be cd0b dabe
00000270: 1c59 103c a836 62be c55c a43d 1776 15be
00000280: ccc3 7f3f 1d8d ed3e 205a 973e e02b f43e
00000290: 8b24 ac3d b82d 503e a6b9 0d3e 2232 d5be
000002a0: cabe 543e 22c2 21bf 0d76 953e 4321 4dbe
000002b0: a476 97be 213f 5bbf 8ced 46bf b1fe b83d
000002c0: 923d 3abf e808 15bf 5a19 9b3d f46f 4abf
000002d0: 3bd3 75be 044a 31bf dd41 46be 2bfe fdbe
000002e0: 71d4 5bbf dd6c bcbe 6b6d d1be 9eb3 8dbe
000002f0: 7979 2abf 30fc 55bf 5dbd 12bf b89f aabe
00000300: 5c7c 35be 451b eb3e 0222 f4be 0439 423f
00000310: 1dde b6bd 9744 003e 2cc6 ef3d d8e0 343d
00000320: e234 8bbe 0a4d 13bf adb6 7cbf 0d84 3ebe
00000330: 0dba 4fbd 7f3d 3abf 35bf 1abf e3c5 68bd
00000340: 8504 29be e203 dc3e a157 853e b2d0 c33d
00000350: fb16 f8bf ee00 313f 5f2d 1ebf ad66 5bbf
00000360: 509c 37bf 67f6 503e 7ace 18bf 2f94 5bbe
00000370: 2f2f 70bf 5da2 14bf 4ff4 09bf 4cf8 0fbf
00000380: 2c24 05bf d2fd 8ebe 968e 123e db02 813e
00000390: 42fa ecbe 24e7 1cbe 437a 7f3d acb5 76be
000003a0: 2cdc ef3e 4794 03bf 3e54 20bf 365d 0cbf
000003b0: 2eaa 28bf 23c9 c4be 1296 61be 06f1 37bf
000003c0: 2485 6fbf de65 8bbf 094d c1bf 9e62 a5bf
000003d0: 2ba4 9c3d fcd1 b8be 7817 153e 4229 1d3e
000003e0: 4d81 0bbe 78a7 c2be cc65 cf3e d59b b0bd
000003f0: 42c2 24bf 7bbc 473e 2bf2 51bf 8824 b9be
-0.45622465 -1.2299417 -1.0681478 -0.59140944 -0.74008554 -0.60525846 0.410551 -0.7029086
-1.1939334 -1.7284287 -1.4904418 -1.4088722 -0.3508856 -0.7190262 0.21155146 -0.413689
-0.59918535 0.46762875 -0.6730563 0.9989092 0.2868362 -0.07998585 0.5624956 0.24649124
0.89969516 0.076407425 -0.4549877 0.22319017 -0.019600164 0.14078361 0.2341363 -0.6684765
0.25565892 -0.6737381 0.61805356 -0.026204307 0.046971835 0.14839785 -0.35660037 -0.90612054
-0.36606017 -0.31384122 -0.30050945 -0.2961211 0.19423313 -0.5717186 -0.7201089 1.7020475
-0.17933798 -0.31220075 -0.081905 0.03137483 0.38444123 0.41289812 0.57031256 0.34416255
0.011829415 -0.32779923 0.026589626 0.116837285 0.34625554 0.4186476 0.25559697 0.21558389
-0.28816858 0.46956554 -0.4538061 0.22590694 -0.02168217 -0.46039504 0.17898773 0.21717648
-0.25919726 -0.24027738 0.16891584 -0.2396972 -0.33268312 -0.0018822805 -0.37931404 -0.25313008
-0.2331627 -0.07292391 -0.61759615 -0.29744074 -0.16986223 -0.43214634 -0.31705567 0.09702139
-0.06166804 0.19563991 -0.9556217 -0.27917734 0.53892684 0.099760264 0.1903936 0.32528177
-0.17323291 -0.60663426 0.0034496405 -0.21592695 0.26596734 0.6689854 0.5298601 -0.11067971
0.4627398 -0.044929445 6.2853724e-05 -0.19094445 0.4220444 -0.6040422 -0.1460204 -0.5344863
-0.5128042 0.05357788 -0.7434666 0.49296224 0.45945564 -0.057865206 0.14494398 -1.1457802
0.1266681 -0.13052717 0.18381347 0.12005039 -0.59943366 -0.21432693 -0.28432778 0.30768457
-0.26286626 -0.09434654 -1.0112222 0.22769351 0.6843791 -0.8679492 -0.5175908 -0.16708794
-0.005697841 -0.13402607 0.023234174 0.4463603 -0.1615353 -0.503587 -0.05946742 -0.19564095
-0.27373984 -0.7052658 -0.3101434 -0.3857957 0.06124444 -0.6133241 -0.2659826 0.51476324
0.17738491 -0.5534551 -0.16447942 -0.42587128 0.008810308 -0.22091162 0.08025507 -0.14595829
0.9990814 0.46396723 0.29560947 0.47689724 0.084054075 0.2032994 0.1384035 -0.4163981
0.20775905 -0.6318685 0.29191628 -0.2003222 -0.29582703 -0.856432 -0.7770622 0.090329535
-0.727502 -0.58216715 0.07573195 -0.79077077 -0.2400636 -0.69253564 -0.19361062 -0.49607977
-0.85871035 -0.36801806 -0.40903792 -0.276761 -0.665916 -0.8358793 -0.57320195 -0.3332498
-0.1772322 0.45919243 -0.47682196 0.7586825 -0.089290835 0.12526165 0.1170772 0.04415974
-0.27188784 -0.5753943 -0.9871624 -0.18605061 -0.05071454 -0.72750086 -0.6044801 -0.056829344
-0.1650563 0.42971712 0.26043418 0.0956129 -1.9382013 0.69142044 -0.6178798 -0.85703546
-0.7172289 0.20406495 -0.5969006 -0.21443246 -0.93821996 -0.58060247 -0.5388841 -0.56238246
-0.5200832 -0.27928025 0.14312205 0.2519749 -0.46284682 -0.15322548 0.062372457 -0.2409274
0.46847665 -0.5139813 -0.62628543 -0.5482973 -0.65884674 -0.38434705 -0.22029904 -0.7185215
-0.9356253 -1.0890462 -1.5101634 -1.292072 0.076485 -0.36097705 0.14559734 0.1534777
-0.13623543 -0.38018394 0.40507352 -0.086234726 -0.64358914 0.19505493 -0.82010144 -0.36160684

229 f4 [2, 512, 128]
00000000: bc3b 9abe cb72 30bf 8f55 4a3e 4216 43bf
00000010: 390e a6bf b839 613f 1db1 cb3d 8b63 a23f
00000020: 74d1 8e3e 4a92 a3bf 6cfd 1abf 5111 7f3e
00000030: 8cfe 8a3d 88cb 743f ac21 a3bc 8b5c 213e
00000040: 3509 00bf 65e1 7fbf 1df9 e2be 6e83 8fbe
00000050: 23b7 933f 45f4 2fbf 0f53 61be e25e 2cbe
00000060: 55b7 46bf 25f8 23bf a6f6 42bf f719 b63e
00000070: a23c 873f f549 ca3e 015d 863e 5f28 5dbe
00000080: 6e52 35be 987a 84bf 4ac6 213e 525c a33e
00000090: 352d 8bbd 0715 133f a0f2 6cbf 6713 ed3d
000000a0: 3794 2fbf 5018 c83e 6cdc d6bd 938c 65bf
000000b0: 9638 8bbf b8d7 0a3f 5d27 ba3d 8e2f 693f
000000c0: cfab 693f 3934 bcbc 90da b63e c652 a13d
000000d0: 0d70 443c ebe2 94bd 6964 173f ec3a c7be
000000e0: 5a36 493e ab43 073f 947e 5b3f c81a 05bf
000000f0: a426 51bf 2d3d e7be cf2e 9dbe 8244 ef3d
00000100: 5c38 70be 1e56 09bf 08f5 c43d d18d 27bf
00000110: 1f89 1b3f 9060 9f3e 50cb e7be cac9 b5bf
00000120: 0d33 0c3f d88c e2be 3e9c 523e 3a19 863f
00000130: be60 db3e 5925 41be 7813 2e3f 60f0 95be
00000140: 4206 203f 4794 71bf 45f4 27bf 7052 8ebf
00000150: 184d 9ebe 45f2 1c3e dc20 a13e ae48 ba3f
00000160: d425 e83c 0d50 133f f2a2 d039 d506 903f
00000170: 42e2 a8bd 9ea3 1dbf 7136 043d cb71 05be
00000180: 093d fa3e 3825 03bf f22f 4bb9 b6cf 67bf
00000190: f5e1 7f3f 1322 833e 852e 0b3e c76d 673f
000001a0: 78ef 423e 284a c33e 8c25 46bf 4f9d ffbe
000001b0: ff31 193f 6499 873f 61d3 46be 4464 4d3f
000001c0: 62ba 013f 0b7d c9be c149 88be 21c9 8bbe
000001d0: bd17 f6be 2106 42be 3952 053f 2deb 4c3e
000001e0: 0016 ca3d 627e 783f 983a 88bf c5e3 94be
000001f0: ed8e 383e 02ce ddbe b423 243f f8cc 393f
00000200: 6f86 82bf f251 be3f 3945 ddbe 381d b0bf
00000210: 9240 cbbe 72a4 d63e 1a30 e33f 7f3b 1ebf
00000220: e7e8 b53d 5dd1 1bbf 22df 46bf 7724 803f
00000230: 56de bb3f 4fab 11bf 2748 64bd 26e7 bdbd
00000240: 5a3e 8cbe 2fb2 983e f7bf b63e 16b9 21bf
00000250: 8635 1c3e 945d 6dbd f6fe 863e 498f 8b3e
00000260: 50e7 e73f 81a9 89bf 3260 96bd 6014 24be
00000270: a274 f9be b6b5 cebe 4888 59bd ec43 33bf
00000280: 54f5 f6be 61e2 a5bd 769d 6e3f 9ee9 6dbe
00000290: bd97 9e3e d48b f03d 407b 6d3f 640b 3fbf
000002a0: c54d b1be e268 923e 0b9a 2b3f 3e82 42bf
000002b0: 0afe 0c3d 2cda 8bbf b588 1f3f a24d b13f
000002c0: 07cf 20bf d5a8 32be 9ac1 153d 1b48 f7bd
000002d0: 7b7e 98bf d9c5 3ebf c882 f4bc 3d9b cc3e
000002e0: 3695 8d3d 4b82 6cbf fff2 c6be 3ec9 b9bd
000002f0: ec07 1d40 a1f4 20bf b2a9 80be 13f4 2abf
00000300: b3f1 8cbf 1c57 bfbe 7233 533e 7f14 88be
00000310: 898a d93e 6531 06bf f238 1c3f 78a9 44be
00000320: fa55 febe 9cec 35be ea57 35be ed4d aa3f
00000330: 7b48 32bf 4c74 65be 7d29 90bd 8dc9 323f
00000340: 9aef 55bd a809 713f 131c a6bd 1700 a83e
00000350: 3e3f b13e 1d94 12be 3e40 973f 2e51 33bf
00000360: 2f12 fa3e 87b8 a03e 092f 1f3f 6497 36bf
00000370: a8d0 003e be97 2c3e 4eac 18bf b76b 093e
00000380: 83c3 a03e 0a78 f33e cd90 ffbf 1304 8c3f
00000390: 4537 a23e 542b e6bf c5b6 5b3e 5217 0a40
000003a0: 6580 af3e c59a 5d3e 8046 9b3a b963 aa3f
000003b0: aa88 863f 803c cdbc fd58 f23e 6cd7 333f
000003c0: 3629 1fbf 2589 44bc 052e 903e 9e56 f1bf
000003d0: df6f 733f 0c73 a83e 5607 c73f d82c f33e
000003e0: 4d7d c6bf cd3a eb3e 746a 84bf ba60 c93e
000003f0: 9074 a83e b2d2 bfbf 4c9c 963f 2535 d1be
-0.301237 -0.6892516 0.197592 -0.7620584 -1.297309 0.87978697 0.09945891 1.2686628
0.27894175 -1.2779019 -0.6054294 0.2490895 0.06786832 0.95623064 -0.019913517 0.15757959
-0.5001405 -0.999533 -0.44330683 -0.2802996 1.1540264 -0.687321 -0.2200434 -0.1683307
-0.7762349 -0.64050514 -0.76157606 0.35566685 1.0565379 0.3950955 0.2624283 -0.21597432
-0.17707226 -1.0349913 0.15798298 0.31906372 -0.06795732 0.5745396 -0.92557716 0.11575966
-0.6858553 0.3908105 -0.10491261 -0.89667624 -1.0876644 0.5423541 0.09089539 0.9108819
0.91277784 -0.02297412 0.35713625 0.07877116 0.011989606 -0.07269844 0.5913759 -0.3891214
0.1964964 0.5283763 0.8574002 -0.5199399 -0.81699586 -0.4516386 -0.30699775 0.11682989
-0.23459 -0.5364703 0.096170485 -0.6545077 0.60756105 0.3112836 -0.45272303 -1.4202206
0.547654 -0.4424808 0.20567414 1.0476449 0.42847246 -0.18861903 0.67998457 -0.29284954
0.6250955 -0.9436688 -0.656071 -1.1118908 -0.30918193 0.15326793 0.31470382 1.455343
0.02833835 0.5754402 0.00039794255 1.1252085 -0.0824628 -0.61577785 0.032278482 -0.1303169
0.4887469 -0.51228666 -0.0001937745 -0.90551317 0.9995416 0.25611934 0.13591965 0.9040188
0.19036663 0.38142514 -0.7740104 -0.49924704 0.59841913 1.0593686 -0.19416572 0.8023112
0.5067502 -0.39353213 -0.2661877 -0.27301887 -0.48064986 -0.1894765 0.52078587 0.20011587
0.098674774 0.97067845 -1.0642881 -0.29080024 0.18023272 -0.43321234 0.6411698 0.7257838
-1.0197276 1.4868758 -0.43216875 -1.3758917 -0.396977 0.41922337 1.7749054 -0.61809534
0.08882313 -0.6086634 -0.77684224 1.0011128 1.4677227 -0.5690202 -0.055732872 -0.09272604
-0.2739132 0.29823443 0.35693333 -0.63173044 0.15254793 -0.05795057 0.26366395 0.27257755
1.8117466 -1.0754853 -0.073425665 -0.16023397 -0.48721796 -0.4037301 -0.053108484 -0.70025516
-0.48234046 -0.08099819 0.93209016 -0.23233649 0.30975142 0.1174542 0.9276619 -0.74626756
-0.34629646 0.28595644 0.67031926 -0.75979984 0.034421958 -1.0925956 0.62317973 1.3851817
-0.628159 -0.17447217 0.036561586 -0.120743 -1.1913599 -0.7452064 -0.029847518 0.39962187
0.06913225 -0.9238631 -0.38857266 -0.09071587 2.4536085 -0.62873274 -0.25129467 -0.6677868
-1.1011261 -0.37371147 0.20625094 -0.26578137 0.42488506 -0.5241912 0.6102439 -0.19205272
-0.4967497 -0.1776604 -0.17709318 1.3305031 -0.69641846 -0.22407645 -0.07039163 0.6983879
-0.052230455 0.9415536 -0.081108235 0.3281257 0.34618562 -0.14314313 1.181648 -0.70045745
0.48841998 0.31390783 0.62181145 -0.71324754 0.12579596 0.1685476 -0.59637916 0.13419996
0.31399164 0.4755252 -1.9966065 1.0938743 0.31682792 -1.7981973 0.2145644 2.1576734
0.34277645 0.21641071 0.0011846572 1.3311683 1.0510457 -0.025053263 0.47333518 0.7025058
-0.6217226 -0.011995588 0.2816011 -1.8854558 0.95092577 0.32900274 1.5549114 0.4749515
-1.5506989 0.459433 -1.0344987 0.3933161 0.3290143 -1.4986174 1.1766448 -0.4086086

out.bias f4 [2]
00000000: 1f8c 81be c035 813e
-0.25302216 0.2523632

out.weight f4 [2, 256]
00000000: 946f 42be 9bc4 983e c638 a240 06f9 b03e
00000010: bf63 f63d 59ca 76be 5dc6 883f 1dc3 dc3d
00000020: 5ba4 0abd e412 4c3b af52 18bf f4bb 9c3e
00000030: 883c 9fbd 2e4f 663e dbeb bf3d b443 05be
00000040: 65ad dbbe f2ec eebc 2725 cbbd e0da df3b
00000050: 824d fc3d 5c0d e1be 5b17 2d3d 15fe 21bc
00000060: ff8d 963d b2a9 5f3d e2a7 af3d 6bf0 32be
00000070: 8416 a8be 7fc3 b43d 9c12 b03e debe 7abe
00000080: ffa0 98bd 26e1 a6be ae22 cb3e 42ad 4cbb
00000090: 3262 03be 90a9 04be efc6 2e3e 9169 d6be
000000a0: 23e1 b73c 106d 32be 3b4b 4ebe 5c91 5a3e
000000b0: 710f 8d3e ba4f b5bf d960 213e ff75 3b3e
000000c0: 25d6 e63d 8768 1bbe cf47 8a3d eec3 6fc0
000000d0: 89ca 35be 6f57 07c0 ba24 3dbe ea4e cf3d
000000e0: 4bb4 acbe 2675 1e3f 8612 8dbc 187a 0e3f
000000f0: d324 973e 38ac 55be 08ae 0bbe e2ee b03e
00000100: 3b8b ffbe e02e 4c3c c7ac a7bd 8a37 29bf
00000110: fb32 9b3f 6da6 0e3f 08c4 b83c 485d 4fbf
00000120: 387d 983e 84bd 58be 24f5 f83e 9ee2 dabf
00000130: 086d b3be 70b1 593f 1c42 39bd 3eb6 01be
00000140: b7e6 f13d 6278 6ebd 332c 103e 0d0f a6bd
00000150: e763 d9bf fcd5 3abd 6d19 c83e efe4 c3bd
00000160: 4b82 b2bd b25f 8abe 33c3 66bd e872 66bf
00000170: 5d17 37bd e770 babe 55aa ebbc da58 9a3e
00000180: 597d 0f3e 8c02 a7bf 796f afbd 1f9d aebe
00000190: d4f8 17be eeea a73d 124e 893e e755 b5be
000001a0: 4b69 933d 2e77 153e 38b2 993e 5b9f fbbe
000001b0: d623 803c 92c0 27bd 7d7a a040 579b cdbd
000001c0: b452 c53d f8d3 9ebd 6433 fd3e 91ae 923d
000001d0: a89d 96be 8943 403e 0c54 f9bd 1d86 a0be
000001e0: 7bfb cabe 2605 8a3f 31e4 de3f 4d36 6dbe
000001f0: 6f0c dcbe 0c5c acbe d7c7 153d 9cc7 f5bd
00000200: 5803 c33c 1a0b d43d acea 13be 6f8e b23e
00000210: 8245 a73d a826 2fbe 1e89 073e 8ee5 063f
00000220: b310 c6be fde5 d03c c241 f93d 02c6 573e
00000230: afd4 56bd dfc6 0d3e 43ce 1bbe 4f24 69be
00000240: 3177 2a3f fa5e 603e 37b3 ef3e 962a efbc
00000250: 9cc5 b5bd e0c0 103e 546a 913e 0001 993e
00000260: 454c 14be 3b74 ac3d d16b a93e adda 5d3e
00000270: 35cb cfbe f1d5 2bbe 49da 803d 8b45 f73d
00000280: ba79 193b d6d2 d03e 2840 803e f2f3 133e
00000290: 05cb fe3d 8b48 213e 9a4d 103e 762b 153f
000002a0: e16c afbe ca73 fd3e 77d5 333e fd44 49be
000002b0: a67e a8be 21b1 7c3d 914c bdbe 28bd 3bbf
000002c0: e0c8 413e 3479 12bf 1e3d fb3d 9990 0a3e
000002d0: 10e6 26be 5789 d43d ad35 ed3d e800 203e
000002e0: f6c3 b4be 201c 183e 7b70 fa3e 9531 b53c
000002f0: 28e9 5e3d 4c84 5abe 50d7 10bf 4db8 483e
00000300: fa21 68be 1d2c 59bf af93 6c3e dc18 083e
00000310: 1e84 cc3e 8512 dc3e 8e90 f6bd 4015 efbd
00000320: 8754 2f3f 3582 b23e 1e78 5e3c e929 f6bd
00000330: b299 82be 40cb 343e 8c6a 8f3e c26e fcbe
00000340: 1d75 abbe bb50 253f f239 a4bd c696 433e
00000350: 9e8f d23d 71ae 15be 95b5 273e 6043 98be
00000360: e578 1d3e 1c79 a6bf c665 693e 8d1e 8a3e
00000370: 8170 0cbe 2cd0 20bf 8033 3c3e 1026 973e
00000380: de71 fabd ce5d 2ebe a482 3b3e eb1a a6bb
00000390: 7b4e 293e be48 44be ac75 083e f29a 463e
000003a0: e3ae ec3d 05b0 bd3d ab56 27be f336 bb3e
000003b0: e48f 99be a268 ecbd ee51 0a3e 2873 13bc
000003c0: c15a ab3e d9e7 c2bd fe3a 2ebf 4629 bd3e
000003d0: 2a75 34be 7ebf 753e 4e8a 983e 1560 4f3e
000003e0: 6292 ddbe cf24 ef3e bef6 d2bd 7fbe b43e
000003f0: 7239 fc3d d014 383f ca06 2bbe 3ff9 293e
-0.18987876 0.29837498 5.0694304 0.3456499 0.12030744 -0.24100627 1.0685536 0.107794024
-0.033848148 0.003113919 -0.59501165 0.30612147 -0.07775217 0.22491142 0.09371158 -0.13014108
-0.42905727 -0.029165719 -0.099191956 0.006831512 0.12319471 -0.43955505 0.0422586 -0.009887238
0.07351302 0.054605193 0.08576943 -0.17474525 -0.32829678 0.088263504 0.34389198 -0.24486873
-0.074525826 -0.3259365 0.39674896 -0.00312312 -0.12830427 -0.12955308 0.17068075 -0.41877416
0.02244622 -0.17424417 -0.20145886 0.21344513 0.27550843 -1.4164956 0.157596 0.1830673
0.112713136 -0.15176593 0.06751978 -3.7463336 -0.17753042 -2.1147115 -0.18471041 0.101224735
-0.33731303 0.61897504 -0.017220747 0.5565505 0.29520282 -0.20866477 -0.13640606 0.34557253
-0.49910912 0.012462348 -0.081872515 -0.6610037 1.2124933 0.55722696 0.022554412 -0.8100171
0.29783034 -0.21166044 0.48624527 -1.7100408 -0.35044122 0.85036373 -0.045229062 -0.12667176
0.118115835 -0.058220275 0.1407936 -0.081083395 -1.6983613 -0.045614228 0.39081898 -0.0956515
-0.08716258 -0.27026135 -0.0563385 -0.90019083 -0.044700015 -0.36414263 -0.028767744 0.30145913
0.1401266 -1.3047652 -0.085661836 -0.3410425 -0.14841014 0.08199106 0.26817375 -0.354171
0.071978174 0.14596245 0.30018783 -0.49145016 0.015642088 -0.040955134 5.014952 -0.10039394
0.09634915 -0.077552736 0.4945327 0.07162202 -0.29417157 0.18775763 -0.12174234 -0.3135232
-0.3964499 1.0782821 1.7413388 -0.23165245 -0.42978236 -0.33663976 0.036567535 -0.12000963
0.023805305 0.1035368 -0.14444989 0.34874293 0.081675544 -0.1710459 0.132359 0.5269402
-0.38684615 0.025500292 0.121707454 0.21071628 -0.052448925 0.13845395 -0.15215401 -0.22767757
0.6658812 0.2191123 0.46816418 -0.029195111 -0.088755816 0.14136076 0.28401434 0.29883575
-0.1448222 0.08420607 0.3309007 0.2166545 -0.40584722 -0.16780831 0.062916346 0.12073811
0.0023418502 0.40785855 0.25048947 0.14448527 0.12441067 0.15750329 0.14092103 0.5826944
-0.34262756 0.49502403 0.17561899 -0.19655223 -0.32909125 0.06169236 -0.36972478 -0.73335505
0.18924284 -0.5721619 0.122675166 0.13531722 -0.162987 0.10377758 0.115825035 0.15625346
-0.35305756 0.14854479 0.4891394 0.02211837 0.054421574 -0.2133953 -0.5657854 0.19601555
-0.22669211 -0.84832937 0.23103212 0.13290733 0.39944547 0.4298288 -0.1203929 -0.11673975
0.68488353 0.34864965 0.013578443 -0.120197125 -0.25507885 0.17655659 0.28010976 -0.49303252
-0.33487788 0.6457631 -0.08018865 0.19100484 0.10281299 -0.14617325 0.16377862 -0.29738903
0.15378149 -1.300571 0.2279273 0.26976433 -0.13714792 -0.62817645 0.1837902 0.29521227
-0.1222875 -0.17027971 0.18311554 -0.005069127 0.16533844 -0.19168374 0.13326138 0.19395044
0.115567945 0.09262089 -0.16341655 0.3656536 -0.29992592 -0.115433946 0.13507816 -0.008999623
0.33467677 -0.09516878 -0.68058765 0.36945552 -0.1762282 0.2399883 0.29793018 0.20251496
-0.43275744 0.4670777 -0.103009686 0.35301587 0.12315644 0.7190676 -0.16701809 0.16598986
