model/data/read_len100_recall.onnx (onnx, 552231 bytes, 5 tensors)

193 f4 [2, 1024]
-0.111544095 0.18301462 -0.7910585 -0.3485704 0.04898427 0.4306457 0.07087396 -0.014436257
0.11014882 0.02759262 -0.1955165 -0.090641 0.23201622 -0.09916832 -0.21448222 -0.012315535
0.3575046 -0.48533592 0.074684106 -0.0115359975 -0.067805156 -0.6462454 0.159586 -0.24994975
-0.03197831 0.006480904 -0.1420764 -0.26295933 -0.17599013 -0.44572037 -0.31399328 -0.202522
-0.48624432 -0.44439995 0.06947929 0.3692142 0.30570304 0.10102578 -0.33912888 -0.34070712
0.30279684 -0.07952349 -0.19089785 -0.040139362 -1.0646629 -0.33047572 -0.3434723 0.36805484
-0.44242093 0.19604461 0.40249622 -0.14124206 -0.11221876 -0.44732675 -0.26643467 0.047758907
0.07482742 0.09227975 -0.08912914 0.09706903 -0.052818626 -0.052316025 0.07552439 0.070738815
-0.20118429 -0.92187625 -0.10771718 -0.18799797 0.37849954 -0.47759905 -0.065457396 -0.12474601
-0.078266144 -0.11333497 -0.18520923 0.3546205 -0.2503288 -0.19104509 -0.12981807 -0.06613416
-0.27761033 -0.10261249 -0.33260107 0.1765776 -1.0371617 0.20814934 0.13081871 0.17904484
-0.18988961 -0.73591906 -0.51146775 -0.3484717 -0.20618813 -0.07914609 -0.23470041 -0.20628235
-0.22029279 -0.2915014 -0.035763483 -0.25092673 -1.0326204 0.43188933 0.37917304 -0.23077671
-0.2370589 -0.3501409 -0.048015296 0.008516344 -0.13468908 0.58152705 -0.44310495 -0.18758291
-0.0017849084 -0.2891833 -0.24957007 -0.5949698 -0.5293767 0.26674747 -0.10478671 -0.32381853
-0.31055987 0.1001765 -0.1834511 0.09434424 -0.38344198 -0.26400727 -0.25330517 -0.3043868
0.40033337 0.358971 -0.06807156 -0.16464059 0.43508542 0.86997086 0.26431036 0.19910166
0.14384246 0.15520631 -0.11478829 -0.07451344 0.36870557 0.0503075 -0.108228065 0.071248166
0.36466837 0.0075129643 0.31128845 0.11753751 -0.19642252 0.0011882412 -0.08259744 -0.28840455
0.07772606 0.07198957 -0.04470643 -0.012195428 0.039059766 -0.030929083 0.20984073 -0.26205665
-0.3164577 -0.19240206 0.23632336 0.44066238 0.6883683 0.26967072 -0.08339497 -0.019957881
0.3160029 -0.13906525 -0.29979584 0.22575422 0.19580586 -0.25175825 -0.11890063 0.35073656
-0.12112372 0.18324955 0.5771985 -0.22778197 0.12845086 -0.07952383 -0.21505754 0.03491115
0.15829848 -0.15719262 0.0007821997 0.028535329 0.10984852 0.18208574 0.15366304 0.42634702
-0.049175024 -0.16775475 0.14364477 0.049383715 0.14747012 -0.19703512 0.12003836 -0.01940317
-0.03950511 0.15436259 -0.056478135 0.6961485 -0.15348454 -0.11010413 -0.026908388 0.1753129
-0.009297569 -0.0062618405 0.07148583 0.39986697 -0.027670685 0.49480116 0.0798998 0.1367996
-0.098962635 -0.21333185 -0.17538738 -0.012091281 -0.20161058 -0.005960598 -0.18162881 -0.25946277
0.01188321 -0.1729797 0.13026021 -0.14343224 -0.06997235 1.0861901 0.15707965 -0.07718553
-0.04368944 -0.051895585 0.33603042 0.17683783 -0.16204412 0.94482857 -0.20137489 -0.16941032
-0.16336954 -0.1458617 0.16937627 0.09713027 -0.2847929 0.4279644 0.13065337 -0.111129016
-0.25774083 0.31767002 0.28937915 0.42188832 -0.013553688 -0.31545857 0.05074766 0.045593042
00000000: 3b71 e4bd 2f68 3b3e cf82 4abf d277 b2be
00000010: bba3 483d 987d dc3e 5e26 913d 0d86 6cbc
00000020: b495 e13d eb09 e23c 7a35 48be fda1 b9bd
00000030: a995 6d3e c318 cbbd 3aa1 5bbe 19c7 49bc
00000040: d80a b73e f37d f8be fbf3 983d 7b01 3dbc
00000050: 6edd 8abd 5770 25bf 836a 233e d4f2 7fbe
00000060: b0fb 02bd c35d d43b 7a7c 11be 9ba2 86be
00000070: c236 34be 7635 e4be bac3 a0be ed61 4fbe
00000080: 04f5 f8be 6488 e3be 284b 8e3d a509 bd3e
00000090: 1c85 9c3e 9be6 ce3d 4da2 adbe 2a71 aebe
000000a0: 3008 9b3e 36dd a2bd ba7a 43be 2c69 24bd
000000b0: e046 88bf 1d34 a9be 9adb afbe af71 bc3e
000000c0: ff84 e2be ebbf 483e fc13 ce3e c2a1 10be
000000d0: f3d2 e5bd 0308 e5be 206a 88be d89e 433d
000000e0: 1e3f 993d 2afd bc3d 5789 b6bd 21cc c63d
000000f0: 5858 58bd 5449 56bd 88ac 9a3d 83df 903d
00000100: 4103 4ebe 1500 6cbf d39a dcbd 8a82 40be
00000110: b1ca c13e dd87 f4be 870e 86bd d67a ffbd
00000120: 004a a0bd 2a1c e8bd 7da7 3dbe d190 b53e
00000130: 192b 80be 53a1 43be 07ef 04be 5971 87bd
00000140: f122 8ebe 7f26 d2bd b04a aabe c2d0 343e
00000150: b7c1 84bf 1a25 553e 57f5 053e 8857 373e
00000160: 6c72 42be 3165 3cbf 8def 02bf e26a b2be
00000170: fb22 53be 5817 a2bd 4e55 70be ae3b 53be
00000180: 6f94 61be ac3f 95be bb7c 12bd 7879 80be
00000190: e82c 84bf 9920 dd3e f822 c23e bb50 6cbe
000001a0: 91bf 72be ab45 b3be b0ab 44bd 2388 0b3c
000001b0: efeb 09be f5de 143f a7de e2be bc15 40be
000001c0: 96f3 e9ba d50f 94be 4c8f 7fbe f14f 18bf
000001d0: 3b85 07bf 2093 883e 6a9a d6bd 8bcb a5be
000001e0: b401 9fbe 5629 cd3d 9bda 3bbe 8e37 c13d
000001f0: 8252 c4be f62b 87be 37b1 81be 96d8 9bbe
00000200: 7ff8 cc3e 0ccb b73e 1a69 8bbd 8b97 28be
00000210: 84c3 de3e 69b6 5e3f b053 873e 4ee1 4b3e
00000220: 704b 133e 67ee 1e3e 1f16 ebbd 819a 98bd
00000230: fac6 bc3e 3d0f 4e3d ada6 ddbd 8fea 913d
00000240: d0b5 ba3e 502f f63b 3361 9f3e 82b7 f03d
00000250: fc22 49be c2be 9b3a d928 a9bd c3a9 93be
00000260: d72e 9f3d 456f 933d 171e 37bd 55cf 47bc
00000270: 22fd 1f3d fd5e fdbc 7de0 563e 4a2c 86be
00000280: be06 a2be 0c05 45be c0fe 713e 809e e13e
00000290: e838 303f 4812 8a3e fbca aabd b67e a3bc
000002a0: 22cb a13e 1f67 0ebe d77e 99be 1d2c 673e
000002b0: 5581 483e 75e6 80be 2c82 f3bd be93 b33e
000002c0: b70f f8bd c5a5 3b3e 48c3 133f ad3f 69be
000002d0: 9f88 033e 64dd a2bd 0b38 5cbe fefe 0e3d
000002e0: ff18 223e 1af7 20be 890c 4d3a ecc2 e93c
000002f0: 43f8 e03d af74 3a3e d859 1d3e 284a da3e
00000300: c06b 49bd e7c7 2bbe 9d17 133e 9446 4a3d
00000310: 6802 173e 93c3 49be acd6 f53d 66f3 9ebc
00000320: 1cd0 21bd 3a11 1e3e 9e55 67bd ca36 323f
00000330: 0d2b 1dbe 467e e1bd fb6e dcbc 3a85 333e
00000340: d554 18bc 2030 cdbb 2a67 923d 5dbb cc3e
00000350: a2ad e2bc 9456 fd3e 82a2 a33d 3215 0c3e
00000360: ecac cabd aa73 5abe c098 33be 821a 46bc
00000370: 0173 4ebe 1f51 c3bb e7fc 39be 4ed8 84be
00000380: ccb1 423c 9721 31be ef62 053e e7df 12be
00000390: aa4d 8fbd 4708 8b3f 7dd9 203e 7213 9ebd
000003a0: b3f3 32bd 7790 54bd 2e0c ac3e fa14 353e
000003b0: e5ee 25be 49e0 713f 3835 4ebe e679 2dbe
000003c0: 584a 27be c55c 15be f970 2d3e 3cec c63d
000003d0: 60d0 91be 261e db3e ffc9 053e 9c97 e3bd
000003e0: 9bf6 83be a5a5 a23e 8129 943e bf01 d83e
000003f0: 4a10 5ebc c983 a1be c7dc 4f3d c5bf 3a3d

194 f4 [2, 512, 4]
-0.4508784 0.27116093 0.49706075 -0.19820362 -0.586802 0.19254357 0.06527453 -0.6131847
-0.42794397 0.15448667 -0.1153561 -0.28176162 -0.19163385 -0.049734436 -0.097327165 -0.31271687
-0.42773774 0.052128963 0.20545104 -0.666457 0.35101512 -0.43552402 0.29505554 -0.17974506
0.3887428 -0.073248126 0.16991828 -0.2765856 0.099733606 0.20027326 0.7262287 -0.74916506
-0.4711567 -0.14544609 -0.58264 0.25537178 -0.21926475 -1.1007099 0.388027 -0.70860845
-0.15534192 -0.41479823 -0.9358633 -0.3120152 0.6768976 0.6005501 0.58814514 -0.4123364
0.2722157 -0.020572966 -0.051117912 -0.31803593 -0.13072789 -0.60504746 0.2357391 -0.64479494
-0.07613517 0.009662891 -0.34799752 -0.12829368 0.89378625 0.38750222 0.5322376 1.0305463
0.17065735 0.47069642 0.104477085 -0.868853 -0.21452528 -0.0752638 -0.17084025 0.33429
-0.18606673 -1.1439239 0.27514404 -0.7024182 0.5859703 0.2300238 0.3485261 0.01937997
-0.4370309 -0.39430445 0.29524472 -0.06356426 -0.61825836 -0.11874702 -0.5351404 0.018071415
-0.6844525 -0.3874457 -1.1508635 -0.37717745 0.11945761 0.17694846 -0.31576872 -0.09820466
-0.120246 0.0072760032 0.18052663 -0.36535522 -0.442732 0.25165066 0.14506544 0.40988645
-0.0038791841 -0.402894 -0.45695007 -0.2325512 -0.19686623 0.39263466 -0.38104823 0.020748781
-0.52525866 0.5086735 -0.35025647 -0.24570347 -0.685383 -0.85042596 -0.8541935 -0.2418652
0.1413124 -1.5073711 0.15412293 -0.73428285 0.35593647 -0.35305494 -0.47892645 -0.4588205
-0.12829569 0.062220164 0.007848465 -0.053047005 -0.38025555 0.28860062 -0.41909888 0.09640705
0.7368552 1.0762596 -0.5543441 0.7634735 -0.48605588 -1.2052417 -1.2316176 -1.3304265
0.43506312 -0.1880776 0.042872958 0.03573499 -0.35177946 -0.06433676 -0.3281691 -0.027333638
0.503819 0.03185855 0.46179128 0.480853 0.071177274 -1.0814159 0.6142136 -2.0847492
-0.30536103 0.106991604 -0.06180866 -0.1256061 -0.45895955 0.11002981 0.345259 -0.27427593
-0.5469213 0.58268416 -0.48804912 0.22037259 -0.27815685 -0.16916917 0.29183698 -0.8295129
-0.8413314 -0.722677 -0.5087919 -0.71607673 -0.50749445 -0.14793 0.074886374 -0.004796213
0.09705187 -0.47252488 -0.36567786 -0.33989373 0.12603673 0.56468356 0.73235613 -0.10748891
-0.6952914 0.43083495 -0.08923008 0.015737021 0.30229476 -0.24841484 -0.263354 0.27032182
-0.14482404 0.51674694 -0.36806145 0.31157374 -0.21639298 -0.017151527 -0.1531099 0.74731505
0.5594437 -0.1436785 -0.949452 -0.047596462 -0.26673952 -0.3801219 -0.7422199 -0.18408869
-0.67693776 -0.21994723 0.089236565 -0.083462186 -0.06329507 0.29280457 -0.23695013 -0.2584302
0.23189935 0.18421409 -0.15124844 0.44600827 -0.39628786 -0.24774113 0.5678072 -0.92281884
0.73797095 -0.11024072 -0.6844039 -0.15978809 -0.009076946 -0.41318533 0.40877953 -0.3533957
0.3703092 0.27766502 -0.19194067 0.33253136 0.14105676 0.24291137 -0.6752681 0.48882654
0.03866592 -0.36829168 -0.046784546 0.9646017 -0.014341998 -0.5286481 -0.63462913 0.5425925
00000000: 89d9 e6be 9bd5 8a3e bf7e fe3e e4f5 4abe
00000010: a838 16bf 242a 453e a7ae 853d acf9 1cbf
00000020: 791b dbbe c131 1e3e d23f ecbd 0f43 90be
00000030: aa3b 44be 56b6 4bbd 7753 c7bd 6d1c a0be
00000040: 7100 dbbe 2e85 553d c261 523e ed9c 2abf
00000050: 41b8 b33e 01fd debe 8511 973e 170f 38be
00000060: 4c09 c73e 1d03 96bd 0fff 2d3e a19c 8dbe
00000070: 2241 cc3d 6f14 4d3e 20ea 393f 48c9 3fbf
00000080: 733b f1be d2ef 14be e527 15bf 17c0 823e
00000090: f086 60be 10e4 8cbf 7aab c63e 5d67 35bf
000000a0: f411 1fbe 6f60 d4be bd94 6fbf 75c0 9fbe
000000b0: 2949 2d3f a7bd 193f ae90 163f c21d d3be
000000c0: db5f 8b3e a388 a8bc 0461 51bd 9bd5 a2be
000000d0: 88dd 05be 64e4 1abf 9765 713e 4811 25bf
000000e0: c2ec 9bbd 1a51 1e3c bb2c b2be 6b5f 03be
000000f0: 2dcf 643f b166 c63e b940 083f f1e8 833f
00000100: cdc0 2e3e 1fff f03e 15f8 d53d 266d 5ebf
00000110: 84ac 5bbe e823 9abd bff0 2ebe 0f28 ab3e
00000120: 4788 3ebe 196c 92bf aedf 8c3e aed1 33bf
00000130: 2602 163f 5c8b 6b3e 0372 b23e bec2 9e3c
00000140: 84c2 dfbe 46e2 c9be 512a 973e fb2d 82bd
00000150: 2e46 1ebf a331 f3bd f6fe 08bf 810a 943c
00000160: 4738 2fbf 485f c6be 7f4f 93bf 671d c1be
00000170: 31a6 f43d fa31 353e 70ac a1be 861f c9bd
00000180: 8943 f6bd 8a6b ee3b f9db 383e d70f bbbe
00000190: c5ad e2be 5bd8 803e 098c 143e a3dc d13e
000001a0: e939 7ebb 1f48 cebe 5cf5 e9be e721 6ebe
000001b0: 4d97 49be 6907 c93e c118 c3be 59f9 a93c
000001c0: 5a77 06bf 6d38 023f d154 b3be b199 7bbe
000001d0: 4375 2fbf 84b5 59bf 6dac 5abf 83ab 77be
000001e0: 33b4 103e 89f1 c0bf 67d2 1d3e f6f9 3bbf
000001f0: 4e3d b63e 9ec3 b4be d935 f5be 85ea eabe
00000200: f25f 03be 92da 7e3d d996 003c d147 59bd
00000210: dbb0 c2be 76c3 933e 2194 d6be 0f71 c53d
00000220: 8ba2 3c3f e0c2 893f 7fe9 0dbf 0073 433f
00000230: 51dc f8be 5c45 9abf a5a5 9dbf 6a4b aabf
00000240: 98c0 de3e 6a97 40be 8e9b 2f3d da5e 123d
00000250: 701c b4be fec2 83bd c805 a8be cbea dfbc
00000260: 48fa 003f 1c7e 023d e86f ec3e 5d32 f63e
00000270: 64c5 913d d66b 8abf 1a3d 1d3f 886c 05c0
00000280: 4858 9cbe 6a1e db3d 142b 7dbd e39e 00be
00000290: bffc eabe 4f57 e13d cac5 b03e e56d 8cbe
000002a0: 0903 0cbf ca2a 153f 93e1 f9be 5aa9 613e
000002b0: 936a 8ebe af3a 2dbe a86b 953e f55a 54bf
000002c0: 7f61 57bf 5c01 39bf 3040 02bf ce50 37bf
000002d0: 28eb 01bf f67a 17be 075e 993d 8d29 9dbb
000002e0: 21c3 c63d c8ee f1be 213a bbbe 8d06 aebe
000002f0: c60f 013e 1a8f 103f b17b 3b3f 2523 dcbd
00000300: 9efe 31bf 6696 dc3e 43be b6bd edea 803c
00000310: 61c6 9a3e 7660 7ebe 56d6 86be 9f67 8a3e
00000320: c14c 14be 8749 043f 8d72 bcbe 9886 9f3e
00000330: 1f96 5dbe 5c81 8cbc d7c8 1cbe 0a50 3f3f
00000340: b437 0f3f 7520 13be 490f 73bf 82f4 42bd
00000350: 1592 88be 569f c2be 2002 3ebf bf81 3cbe
00000360: cb4b 2dbf d939 61be a9c1 b63d 39ee aabd
00000370: d8a0 81bd 7bea 953e 0ea3 72be f750 84be
00000380: 0677 6d3e 9ea2 3c3e dfe0 1abe 325b e43e
00000390: 3ee6 cabe daaf 7dbe d05b 113f db3d 6cbf
000003a0: aaeb 3c3f e3c5 e1bd 1835 2fbf 7d9f 23be
000003b0: 79b7 14bc 078d d3be 8d4b d13e 48f0 b4be
000003c0: 2b99 bd3e 1c2a 8e3e 188c 44be 8d41 aa3e
000003d0: 2f71 103e c2bd 783e 5fde 2cbf 7947 fa3e
000003e0: 2860 1e3d ba90 bcbe 27a1 3fbd 23f0 763f
000003f0: b3fa 6abc 7b55 07bf 0e77 22bf 58e7 0a3f

195 f4 [2, 512, 128]
-0.28247365 1.0550797 -0.43252409 -0.019585216 -0.3347046 -0.15551074 -0.8132366 -1.2050613
0.23248096 -0.7416255 -0.0068214303 -0.52867514 0.23173197 -0.05637722 -0.51153564 -0.012542651
0.60993797 -0.44358984 0.9659194 -0.039095055 0.59098136 -0.1902976 -0.38943103 -1.0757335
0.48340192 0.63673854 -0.4375999 -0.46965674 -0.848834 0.20761056 -0.18895002 0.7761088
-0.55128115 1.2895215 -0.69794 -1.0620159 0.8994695 -0.20351793 0.4677122 0.08202948
0.6299475 -0.44954175 -0.30053833 0.39249286 0.5431157 -0.39347178 0.4890898 -0.26082253
0.03465186 -0.6889791 0.5688879 -0.99869436 -0.60035527 -0.39366493 0.36408857 0.5448273
0.18599324 -0.49543777 -0.4897857 0.44299394 -0.5091559 -0.2706747 -0.22271203 0.6159414
0.7087243 0.2715212 0.21035388 0.6659149 -1.0283858 0.40735757 0.03269066 1.1598699
0.6802269 0.54910886 0.61162776 -0.7069544 0.17650692 -0.14149426 0.13912816 0.20373283
-0.4536834 -0.2932891 -0.9679294 0.27224284 -0.39718452 -0.2369032 -0.9528282 1.3425825
-0.16823956 0.37175494 0.16207011 -0.87914175 -0.4091712 -0.7798768 -0.8994006 0.0793088
-1.0197675 -1.0220755 -0.14070123 0.7596693 -0.2820038 -0.6906602 0.76554924 0.21152656
0.022200258 -0.17573777 0.54638207 -0.024113366 0.1649235 0.21945894 0.1534172 0.9779182
-0.6619342 -0.44860205 0.41505075 0.2295977 -1.2571077 -0.4410913 0.54919016 0.003814681
1.1599638 -0.34982672 0.28839344 -0.32479405 0.5410098 0.39869443 -0.08769507 0.2874751
-0.65412503 0.21209064 0.85908365 0.653301 -0.815507 -0.25515255 -0.39711007 0.23108897
0.45307022 -0.20382169 0.6784412 -0.38333684 -0.02860031 -0.40157384 -0.032016624 0.37908942
-0.5967844 0.34986693 0.85625064 -0.5073171 0.9554729 0.29480425 -0.075060956 0.40496907
0.6953518 -0.121414825 0.20707665 -0.10842821 0.36357898 0.45021495 0.2713633 -1.1320153
0.9401631 -0.80613446 -0.35619366 0.03694075 -0.22668257 -0.9442407 -0.8876753 -0.25304243
-0.25808915 0.62233 -0.21066587 0.026032794 -0.15081894 0.257581 0.34795088 -0.06433797
0.70916885 -0.07589563 0.124998875 -0.5215496 -0.5891675 -0.14065197 -0.13820961 0.3339971
-0.047102235 -0.076224774 0.46373415 0.6276595 0.060051877 0.4706909 -0.25647977 -0.54973894
-0.02632789 -0.79240507 0.126941 0.5035311 -0.43155965 0.26541576 -0.10422447 1.691412
0.3942817 0.16973947 0.20340914 -0.38484535 0.0846753 1.0421194 0.46616507 -0.06733253
-0.5565235 0.19780536 -1.3381149 -0.036972567 0.5352131 -0.28201568 -0.00739692 -0.063407496
-0.62652165 0.6676157 -1.2573717 -0.21613882 -0.25184664 0.16624829 -0.11506351 0.2993325
-0.88724744 0.114919394 0.023509823 -0.057356056 0.4716505 1.2710261 -0.6599916 -0.07775203
-0.16207422 -0.1916042 0.7086851 0.9275395 0.6479249 0.38308927 1.0186214 0.15574767
-0.5080782 -0.63535607 -0.26202226 0.25821152 0.28888756 -0.28864038 0.2412275 -0.5159064
0.09045632 -0.18735309 0.73768705 0.13413797 -0.43246564 0.07471306 -0.06903299 -0.5987204
00000000: 63a0 90be da0c 873f cc73 ddbe 2d71 a0bc
00000010: 675e abbe 353e 1fbe 4630 50bf 733f 9abf
00000020: 7d0f 6e3e 2bdb 3dbf 4e86 dfbb 4157 07bf
00000030: 254b 6d3e cdeb 66bd 00f4 02bf b17f 4dbc
00000040: e524 1c3f 351e e3be 7e46 773f 2322 20bd
00000050: 8e4a 173f 60dd 42be 8163 c7be a3b1 89bf
00000060: 7580 f73e 4c01 233f 180d e0be d976 f0be
00000070: 2f4d 59bf dd97 543e 1d7c 41be 11af 463f
00000080: c320 0dbf 0a0f a53f 32ac 32bf 23f0 87bf
00000090: a243 663f 0167 50be f977 ef3e 12ff a73d
000000a0: 3d44 213f 562a e6be 29e0 99be d3f4 c83e
000000b0: a109 0b3f 2275 c9be fa69 fa3e 888a 85be
000000c0: 1cef 0d3d ef60 30bf a3a2 113f 6faa 7fbf
000000d0: e2b0 19bf 738e c9be d169 ba3e cd79 0b3f
000000e0: 0375 3e3e 05aa fdbe 31c5 fabe 1ad0 e23e
000000f0: 0b58 02bf e095 8abe 9f0e 64be 56ae 1d3f
00000100: f56e 353f d404 8b3e 0267 573e 6679 2a3f
00000110: 25a2 83bf 2c91 d03e a4e6 053d 9e76 943f
00000120: 5a23 2e3f 6692 0c3f a393 1c3f f7fa 34bf
00000130: 3bbe 343e dfe3 10be 9d77 0e3e 579f 503e
00000140: 3149 e8be fd29 96be 39ca 77bf 6a63 8b3e
00000150: c55b cbbe c196 72be 8dec 73bf bed9 ab3f
00000160: fe46 2cbe aa56 be3e b5f5 253e 6f0f 61bf
00000170: e37e d1be 02a6 47bf 1e3f 66bf a76c a23d
00000180: be87 82bf 5fd3 82bf fc13 10be b079 423f
00000190: cd62 90be 1bcf 30bf 09fb 433f 6b9a 583e
000001a0: 51dd b53c 9af4 33be b2df 0b3f 6589 c5bc
000001b0: b5e1 283e d8b9 603e 6619 1d3e d958 7a3f
000001c0: 8574 29bf 2baf e5be 8881 d43e a91b 6b3e
000001d0: e8e8 a0bf b8d6 e1be ba97 0c3f baff 793b
000001e0: b279 943f 7d1c b3be 4ea8 933e 684b a6be
000001f0: 9e7f 0a3f ad21 cc3e 7999 b3bd f02f 933e
00000200: bd74 27bf 4a2e 593e e8ec 5b3f bc3e 273f
00000210: 11c5 50bf 5ba3 82be 0352 cbbe 96a2 6c3e
00000220: d2f8 e73e a2b6 50be 53ae 2d3f ba44 c4be
00000230: 334b eabc 169b cdbe dd23 03bd 0218 c23e
00000240: ddc6 18bf c221 b33e 3e33 5b3f 89df 01bf
00000250: df99 743f 95f0 963e 8fb9 99bd 1b58 cf3e
00000260: 9302 323f 56a8 f8bd e70b 543e 9c0f debd
00000270: 0627 ba3e 9382 e63e 21f0 8a3e e1e5 90bf
00000280: 87ae 703f d45e 4ebf 045f b6be 2f4f 173d
00000290: 7a1f 68be c2b9 71bf b03e 63bf c78e 81be
000002a0: 4324 84be 0551 1f3f cbb8 57be ba42 d53c
000002b0: 4870 1abe a8e1 833e 9e26 b23e a0c3 83bd
000002c0: 178c 353f 2b6f 9bbd 69ff ff3d 4684 05bf
000002d0: aed3 16bf 1207 10be d286 0dbe ab01 ab3e
000002e0: 46ee 40bd bc1b 9cbd 906e ed3e 4bae 203f
000002f0: f5f8 753d 66fe f03e 5151 83be b1bb 0cbf
00000300: 96ad d7bc 0fdb 4abf d2fc 013e 6ae7 003f
00000310: 63f5 dcbe 93e4 873e a473 d5bd 3080 d83f
00000320: 4adf c93e 2fd0 2d3e 7c4a 503e 730a c5be
00000330: 3e6a ad3d 2b64 853f 30ad ee3e a3e5 89bd
00000340: 5378 0ebf 7d8d 4a3e 5947 abbf 8c70 17bd
00000350: ba03 093f 5c64 90be dd61 f2bb cadb 81bd
00000360: b963 20bf dde8 2a3f 8ef1 a0bf 7f53 5dbe
00000370: 0bf2 80be fe3c 2a3e 6ba6 ebbd 1c42 993e
00000380: a622 63bf dc5a eb3d ac97 c03c 2fee 6abd
00000390: 2d7c f13e fcb0 a23f 36f5 28bf 753c 9fbd
000003a0: c9f6 25be e433 44be 636c 353f 3b73 6d3f
000003b0: 68de 253f 4724 c43e 3062 823f 517c 1f3e
000003c0: 6a11 02bf b2a6 22bf c827 86be 4d34 843e
000003d0: 12e9 933e acc8 93be 5704 773e 7112 04bf
000003e0: 2a41 b93d 7dd9 3fbe 0fd9 3c3f 775b 093e
000003f0: 236c ddbe 2903 993d 2b61 8dbd bd45 19bf

out.bias f4 [2]
-0.100063816 0.10600545
00000000: 42ee ccbd 6319 d93d

out.weight f4 [2, 256]
0.13220061 0.10460156 3.1084871 -0.12288743 0.3770333 0.058572292 0.07419742 -0.19849958
0.13405654 0.16060424 -0.10003584 0.032929916 -0.23096408 -0.07914378 -0.14614749 -0.2185033
0.07906132 -0.12426268 0.023460124 0.1144116 -0.52686447 1.596601 -0.29569697 -0.3848297
0.15437412 0.1534862 0.314862 0.16250551 0.021631543 1.3164948 0.49155226 0.2336119
0.005416028 0.8353559 0.01094995 0.35923153 -0.10420732 0.10918119 -0.30270082 0.637972
-0.01286137 -0.11825306 0.48714027 0.15452178 2.7765641 0.02494841 -0.3878683 0.024453836
0.021674924 0.034230508 -0.05138233 0.02995045 -0.26845598 0.34358066 -1.6256284 -0.05809697
-0.34184664 -0.5095592 0.17721689 0.021644335 0.318096 0.07466087 0.12534007 0.28267205
-0.0825848 0.767156 0.06655905 -0.010766798 0.24788176 -0.034904007 0.08237388 -0.14891407
0.100904815 -0.17040172 0.079900816 0.22649983 -0.44285804 0.0007036964 0.15124537 0.279669
-0.032054756 0.08525612 -0.13793993 0.4199201 -2.0483897 -0.12494638 -0.021124525 -0.037741862
-0.4650707 -1.4588572 -0.55486387 -0.668261 0.14010386 -0.65667915 -0.25250983 -0.71622044
0.15782572 0.018610738 0.018524194 -0.22869602 3.7075586 -0.13621764 -0.096162446 -0.67994577
-0.022757294 -0.110062614 -0.11969037 -0.1090746 -0.19764014 0.017031686 0.19858472 0.64850354
0.08608197 -0.3344361 -0.080173254 0.0017387038 -0.8323139 -0.1108687 0.02536345 -0.14919886
-0.06419601 0.11355612 0.076487236 -0.14771411 1.322013 -0.15984194 0.120591134 0.41322136
-0.03734444 -0.016329559 0.021347532 0.02121602 0.0058763362 0.12653553 0.00053782365 -0.00081923726
-0.008435699 -0.032200355 0.022961408 0.12705363 0.041511893 0.005927208 -0.036866304 0.031673525
-0.05714004 0.002840963 -0.029834684 0.022136236 0.019549996 -0.004723677 0.008946525 -0.015852734
0.030301103 -0.01586425 -0.0081850495 -0.05055586 -0.0069782156 0.0021760277 0.015702678 0.00568563
-0.015865548 0.019910777 -0.004608402 0.000871874 0.013583455 -0.038850494 -0.014317957 -0.011233041
-0.0046332753 -0.040925853 -0.00061672734 0.034667403 0.04639606 0.028080773 0.029695129 -0.016993158
0.0028960744 0.016140467 -0.15844133 -0.0065833596 -0.013199405 -0.00038116486 -0.030538697 0.0012638306
-0.022805886 0.0137906475 -0.019854773 0.0011471319 0.005206939 0.005452584 0.009510975 0.009490265
0.16778734 0.013139531 0.023400422 0.00023400436 -0.026536314 -0.028572544 -0.042299382 0.022759246
0.029743867 0.009454628 -0.019428883 -0.01729025 0.16651955 0.029624857 0.01939507 -0.024679145
0.049501456 -0.011766861 -0.006377842 0.020000065 -0.013210835 -0.025783842 -0.14197569 -0.0026971116
-0.010270464 0.006114371 -0.013953646 -0.016174944 -0.027305907 -0.017334862 -0.04676837 -0.025190776
-0.052864604 0.027229508 0.0020789523 -0.04363079 -0.0060158498 -0.022613185 -0.029951045 0.019519914
0.03454442 0.024253042 0.05130771 -0.0164479 -0.00027476434 -0.018751858 -0.038035255 0.031638503
-0.05159663 0.041067023 -0.017553767 0.22027427 -0.0108167315 0.017756801 -0.036818814 0.011673109
-0.026671398 0.0823784 -0.04274778 -0.0018500095 0.0298509 0.053547405 0.014223217 -0.017869974
00000000: 995f 073e 5839 d63d 74f1 4640 68ac fbbd
00000010: 820a c13e 80e9 6f3d d1f4 973d 7943 4bbe
00000020: 1e46 093e 7075 243e 97df ccbd 85e1 063d
00000030: d981 6cbe 2216 a2bd b0a7 15be 54bf 5fbe
00000040: e7ea a13d 6f7d febd 722f c03c a150 ea3d
00000050: 97e0 06bf 6c5d cc3f 9865 97be 6608 c5be
00000060: 4014 1e3e 7d2b 1d3e 9835 a13e d867 263e
00000070: a234 b13c e782 a83f bdac fb3e f537 6f3e
00000080: f078 b13b e2d9 553f 6b67 333c 32ed b73e
00000090: a66a d5bd 639a df3d 9afb 9abe 2252 233f
000000a0: 7fb8 52bc a92e f2bd 736a f93e f53a 1e3e
000000b0: 3ab3 3140 9c60 cc3c ac96 c6be 6953 c83c
000000c0: 9c8f b13c 4a35 0c3d 4776 52bd a55a f53c
000000d0: 1073 89be cee9 af3e 9714 d0bf 17f7 6dbd
000000e0: 8606 afbe 7972 02bf 5878 353e 764f b13c
000000f0: 7bdd a23e cce7 983d 2659 003e 64ba 903e
00000100: 3822 a9bd 5664 443f 1c50 883d 3967 30bc
00000110: b7d4 7d3e 81f7 0ebd a3b3 a83d ee7c 18be
00000120: 2fa7 ce3d ca7d 2ebe 0aa3 a33d 92ef 673e
00000130: 4abe e2be 4478 383a 11e0 1a3e c630 8f3e
00000140: d94b 03bd c39a ae3d 2040 0dbe c4ff d63e
00000150: d118 03c0 e3e3 ffbd 570d adbc 3697 1abd
00000160: bf1d eebe d5bb babf 8f0b 0ebf 2713 2bbf
00000170: 6377 0f3e 201c 28bf f848 81be 395a 37bf
00000180: 119d 213e 8c75 983c 0dc0 973c 4a2f 6abe
00000190: a448 6d40 a37c 0bbe d1f0 c4bd ed10 2ebf
000001a0: 816d babc 8268 e1bd 3a20 f5bd 8162 dfbd
000001b0: 2d62 4abe 0986 8b3c cb59 4b3e 5404 263f
000001c0: be4b b03d 353b abbe e031 a4bd 38e5 e33a
000001d0: 8612 55bf 210f e3bd 03c7 cf3c 96c7 18be
000001e0: 3379 83bd 1c90 e83d 57a5 9c3d 5e42 17be
000001f0: b937 a93f 9bad 23be 7cf8 f63d c091 d33e
00000200: 7cf6 18bd 91c5 85bc 05e1 ae3c 38cd ad3c
00000210: 488e c03b 8892 013e bcfc 0c3a 15c2 56ba
00000220: e335 0abc 85e4 03bd 9019 bc3c 591a 023e
00000230: 6008 2a3d 0639 c23b 1f01 17bd 19bc 013d
00000240: ad0b 6abd 732f 3a3b de67 f4bc 0d57 b53c
00000250: 5027 a03c 13c9 9abb 7294 123c 98dd 81bc
00000260: 053a f83c bef5 81bc 961a 06bc a913 4fbd
00000270: 84a9 e4bb b09b 0e3b e7a2 803c 854e ba3b
00000280: 77f8 81bc ed1b a33c 1402 97bb 798e 643a
00000290: 248d 5e3c b221 1fbd dd95 6abc ca0a 38bc
000002a0: bbd2 97bb dea1 27bd dfab 21ba 68ff 0d3d
000002b0: cc09 3e3d a609 e63c 3343 f33c 3c35 8bbc
000002c0: 11cc 3d3b 0339 843c 723e 22be 39b9 d7bb
000002d0: 5142 58bc 15d7 c7b9 4a2c fabc 1ea7 a53a
000002e0: 69d3 babc 2bf2 613c 7aa6 a2bc 5c5b 963a
000002f0: f89e aa3b 97ab b23b ecd3 1b3c 0e7d 1b3c
00000300: 72d0 2b3e 3047 573c 3eb2 bf3c 115f 7539
00000310: af62 d9bc f810 eabc 1e42 2dbd 9971 ba3c
00000320: 69a9 f33c 96e7 1a3c 5229 9fbc 48a4 8dbc
00000330: 1a84 2a3e d4af f23c 69e2 9e3c eb2b cabc
00000340: 0ac2 4a3d cbc9 40bc 37fd d0bb 2dd7 a33c
00000350: 4272 58bc a338 d3bc 1362 11be 06c2 30bb
00000360: 7345 28bc 105b c83b d59d 64bc 5181 84bc
00000370: a3b0 dfbc d701 8ebc 3190 3fbd e35c cebc
00000380: 8e88 58bd 6b10 df3c 083f 083b 33b6 32bd
00000390: 9b20 c5bb 493f b9bc e55b f5bc 3ae8 9f3c
000003a0: 737e 0d3d 51ae c63c 0928 523d bfbd 86bc
000003b0: 3f0e 90b9 7f9d 99bc dbca 1bbd 6097 013d
000003c0: fd56 53bd e535 283d ebcc 8fbc 948f 613e
000003d0: a938 31bc b676 913c 53cf 16bd 9140 3f3c
000003e0: fa7d dabc 02b6 a83d 4c18 2fbd 057c f2ba
000003f0: e089 f43c 8654 5b3d 7f08 693c 0d64 92bc
