model/data/read_len100_mcc.onnx (onnx, 552231 bytes, 5 tensors)

193 f4 [2, 1024]
-0.07125216 -0.35407373 -1.0968506 -0.30508688 0.076903775 -0.04483448 -0.55740124 -0.055256393
-0.30693933 0.017227443 -0.5593808 0.09046805 -0.34386957 -0.24281053 -0.28821644 -0.31061068
-0.46046335 -0.27682373 -0.002688605 -0.071926035 -0.44502637 -0.52723855 -0.43589854 0.26845047
-0.45155686 0.18760097 0.11833273 -0.53471893 -0.035977326 -0.49902132 -0.4553591 -0.40135542
-0.23561375 -0.3903906 -0.112439044 -0.39349174 -0.20883845 0.30509517 -0.35490894 -0.21502775
-0.15751919 -0.5203187 -0.57548356 -0.3122182 -0.19390105 -0.39327484 -0.19398996 -0.18869345
-0.36565793 -0.20669505 -0.44191936 -0.78941107 -0.30447564 -0.61212283 -0.2941644 -0.24887821
-0.21123849 -0.3891454 0.097539 -0.56084293 -0.59139615 -0.1585781 -0.39588562 -0.08725759
-0.16281891 -0.20443664 0.39544177 -0.36175895 -0.469214 -0.39740935 -0.27653536 -1.2178698
-0.948382 -0.43626782 -0.3574346 -0.82064193 -0.31627738 -0.6487541 -0.21449848 -0.31232387
-0.30876568 -0.19438788 -0.41633573 -0.3107768 -0.23508914 -0.3863701 -0.1452546 -0.4104351
0.26645333 -0.07444063 -0.4403196 -0.417351 -0.43407345 -0.25927404 -0.32880682 -0.5689108
-0.0829214 -0.5082684 -0.10739652 -0.08142048 -0.33357093 -0.3646357 -0.20643944 -0.3565987
0.3780205 0.04902183 -0.18278317 -0.52045083 -0.026995802 -0.57321054 -1.3652062 -0.26482144
0.25292787 0.015412861 -0.23563538 -0.099658005 -0.143017 -0.56603074 -0.30092308 -0.6465099
-0.3045959 -0.88924736 -0.7165096 -0.07074834 0.15402015 -0.3611243 -0.23543611 -0.2828035
0.43009746 -0.23213115 0.31110415 -0.4593931 0.26557526 -0.13575694 -0.27892056 0.29879087
0.13912244 -0.10916703 -0.3865623 0.03146325 -0.11432722 0.029496524 0.108313106 0.060757898
-0.30775708 0.18763807 0.30602944 -0.33211756 -0.15415211 -0.2058098 -0.07266515 0.8368325
0.021041747 -0.14944135 0.041755296 -0.24361461 0.10496971 -0.35118034 -0.2977845 -0.10426361
0.014700515 0.04307314 0.041051492 0.33091718 -0.17709766 -0.062033664 -0.07046551 -0.21555357
-0.00599388 -0.41104487 -0.42181116 0.043998655 -0.009499253 -0.033700958 -0.14001267 -0.23127015
-0.20584136 -0.095641196 -0.14242734 -0.054007232 -0.1619431 -0.29933646 0.07717887 0.110149756
0.058997974 -0.56433773 0.3901402 -0.34876162 -0.12531854 0.006486774 -0.12051241 -0.14294527
-0.005738056 0.05007847 0.3827476 -0.022142569 -0.22964902 -0.07821578 -0.052546166 -0.28679028
-0.2887093 -0.09605214 -0.22438909 -0.27168557 -0.14051405 0.012846955 -0.2833846 -0.21554531
-0.31496266 0.008172248 -0.15971667 -0.036047794 -0.11265246 -0.20607743 -0.076159365 0.14577836
0.3686381 -0.0096014 -0.052281074 -0.26674607 -0.23768224 -0.23354708 -0.24901818 -0.23762491
0.085478485 -0.22973241 -0.004014263 0.31593424 -0.16959406 -0.31546062 0.024470901 -0.03577026
0.48231527 -0.15626432 -0.103222735 -0.27017838 0.1998689 -0.2763215 0.358252 -0.11853235
0.51709664 0.034632254 -0.03041891 -0.2631999 0.027458359 -0.29657516 -0.13885544 -0.3422071
-0.51705307 -0.37587708 -0.3495658 -0.06344923 0.25349405 -0.28134578 -0.070249654 -0.30067226
00000000: a7ec 91bd 2749 b5be 9a65 8cbf 5934 9cbe
00000010: ba7f 9d3d 5ca4 37bd d9b1 0ebf 8754 62bd
00000020: 2727 9dbe 9120 8d3c 9533 0fbf 5047 b93d
00000030: ac0f b0be 53a3 78be 1b91 93be 5d08 9fbe
00000040: dac1 ebbe d7bb 8dbe 4f33 30bb f54d 93bd
00000050: 7fda e3be 1bf9 06bf 182e dfbe 5772 893e
00000060: 7632 e7be 781a 403e 6e58 f23d 57e3 08bf
00000070: f65c 13bd b97f ffbe d424 e9be 757e cdbe
00000080: bb44 71be 47e1 c7be 7146 e6bd c077 c9be
00000090: bfd9 55be 6f35 9c3e a0b6 b5be 3c30 5cbe
000000a0: b64c 21be 9b33 05bf e452 13bf 10db 9fbe
000000b0: ff8d 46be 525b c9be 4ea5 46be db38 41be
000000c0: 8437 bbbe dea7 53be 4143 e2be d816 4abf
000000d0: 3be4 9bbe 15b4 1cbf b79c 96be eed9 7ebe
000000e0: e74e 58be 113e c7be 87c2 c73d 6793 0fbf
000000f0: bd65 17bf 4c62 22be 85b1 cabe 1bb4 b2bd
00000100: 00ba 26be d757 51be 5877 ca3e 7838 b9be
00000110: d13c f0be 3d79 cbbe 0b96 8dbe 28e3 9bbf
00000120: 2ac9 72bf 7f5e dfbe ab01 b7be 9715 52bf
00000130: 1cef a1be c014 26bf 7da5 5bbe eae8 9fbe
00000140: 8916 9ebe 9e0d 47be f529 d5be 231e 9fbe
00000150: 35bb 70be 4dd2 c5be 9fbd 14be 8d24 d2be
00000160: 926c 883e 5474 98bd 9271 e1be 08af d5be
00000170: e03e debe 91bf 84be 5e59 a8be 23a4 11bf
00000180: b2d2 a9bd e11d 02bf b5f2 dbbd c8bf a6bd
00000190: cfc9 aabe 88b1 babe dc64 53be 1b94 b6be
000001a0: e78b c13e 1dcb 483d 832b 3bbe 443c 05bf
000001b0: 4d26 ddbc edbd 12bf 14bf aebf ad96 87be
000001c0: c37f 813e 3986 7c3c 674a 71be 7f19 ccbd
000001d0: 0c73 12be 64e7 10bf 9712 9abe ac81 25bf
000001e0: fef3 9bbe b7a5 63bf 2c6d 37bf 81e4 90bd
000001f0: 75b7 1d3e 49e5 b8be 2a16 71be 9fcb 90be
00000200: bc35 dc3e cab3 6dbe 0b49 9f3e 9335 ebbe
00000210: 7bf9 873e de03 0bbe adce 8ebe 1efb 983e
00000220: 1d76 0e3e f792 dfbd 7eeb c5be 9cdf 003d
00000230: 6424 eabd b2a2 f13c 43d3 dd3d 46dd 783d
00000240: 5692 9dbe 3224 403e e4af 9c3e 500b aabe
00000250: 0dda 1dbe cebf 52be 77d1 94bd a83a 563f
00000260: be5f ac3c 2707 19be 9a07 2b3d 1c76 79be
00000270: 5cfa d63d e9cd b3be 3677 98be 2988 d5bd
00000280: 6eda 703c 766d 303d 9c25 283d fa6d a93e
00000290: 1759 35be 0317 7ebd 3950 90bd 13ba 5cbe
000002a0: 4f68 c4bb 7974 d2be a2f7 d7be ef37 343d
000002b0: c1a2 1bbc 040a 0abd 7b5f 0fbe 15d2 6cbe
000002c0: 14c8 52be 88df c3bd 79d8 11be b036 5dbd
000002d0: 69d4 25be a142 99be f50f 9e3d 3296 e13d
000002e0: dca7 713d 7078 10bf 75c0 c73e e290 b2be
000002f0: 8153 00be 018f d43b 36cf f6bd 3f60 12be
00000300: 4d06 bcbb 151f 4d3d 7ef7 c33e 5564 b5bc
00000310: 1d29 6bbe 982f a0bd a63a 57bd 2dd6 92be
00000320: b5d1 93be fcb6 c4bd 41c6 65be 5f1a 8bbe
00000330: eae2 0fbe 097c 523c c917 91be e9b7 5cbe
00000340: c942 a1be e4e4 053c c48c 23be daa6 13bd
00000350: 55b6 e6bd f605 53be 71f9 9bbd ec46 153e
00000360: 22be bc3e 314f 1dbc ae24 56bd f192 88be
00000370: f962 73be f726 6fbe 9ffe 7ebe f253 73be
00000380: 580f af3d f93e 6bbe 148a 83bb 22c2 a13e
00000390: 11aa 2dbe 0e84 a1be 3377 c83c d683 12bd
000003a0: 07f2 f63e c103 20be 7166 d3bd d254 8abe
000003b0: 6faa 4c3e 037a 8dbe ce6c b73e 17c1 f2bd
000003c0: 7260 043f 8dda 0d3d 1431 f9bc 23c2 86be
000003d0: 5af0 e03c b3d8 97be 1f30 0ebe c535 afbe
000003e0: 975d 04bf f672 c0be 4afa b2be abf1 81bd
000003f0: f9c9 813e 8e0c 90be 0ddf 8fbd b7f1 99be

194 f4 [2, 512, 4]
0.5897672 -1.2057842 -0.7783474 -0.23324163 -0.52167195 -0.5702652 0.6722575 -0.6340412
-0.57281435 -1.4041622 -0.9342358 -0.9685237 0.10590446 -0.5486236 -0.026134348 -0.14086942
-0.34055492 0.74345565 -0.6150004 0.50533783 0.14730443 0.14236444 0.36099225 0.20307149
0.6071818 -0.16249707 -1.1267285 0.014700212 0.15807386 0.111105464 0.20382313 -0.69600314
0.024386605 -0.50485873 0.54031616 -0.18189013 0.084725015 0.31609875 -0.36167005 -0.80953366
-0.46033785 -0.29203042 -0.46487963 -0.313951 0.34042248 -0.18398698 -0.79167867 1.2129699
0.012453512 -0.41329935 0.24171835 0.34383544 0.5097908 0.24663073 0.42755508 -0.01213593
-0.06643718 -0.20666711 0.01104999 -0.16921999 0.7382813 0.08094335 0.719038 0.18125689
-0.3047351 0.062826365 -0.5944671 -0.10565938 -0.21133803 -0.2772019 0.18723345 0.54453164
0.17295355 -0.01835137 0.39786854 -0.39525104 -0.3170481 -0.04977425 -0.25914717 -0.026403008
-0.13818967 -0.045556795 -0.64005476 -0.48441884 -0.2318414 -0.5713027 -0.0029168034 -0.037983716
-0.17892396 0.41561255 -0.12571172 -0.17093879 0.04245902 0.21988912 0.23953795 0.41388682
-0.07803127 -0.49459007 0.1625113 -0.21792175 0.045211934 0.60437095 0.8902691 -0.7819433
0.23917842 0.2122427 -0.10145408 0.25729358 0.6249696 -0.47269225 -0.10947906 -0.46236882
-0.105520956 0.2107529 -0.5407274 0.59481215 0.39437544 -0.22878332 -0.11026953 -1.2066792
-0.25395098 0.009670657 0.04965379 0.31287187 -0.7054475 -0.33214298 -0.30358177 0.12291227
-0.066106856 0.1910364 -0.529504 0.13214214 0.9489399 -0.89372796 -0.6846643 -0.04054365
-0.061463423 0.051288083 0.019515703 0.32223693 0.045293875 0.0057268334 -0.25288522 -0.0049564163
-0.62689024 -0.7325764 -0.34075567 -0.05443974 0.23707867 -0.29219627 -0.060583543 0.44163445
0.15564081 -0.636241 0.039580632 -0.37504163 -0.17559013 -0.018633662 -0.33879578 -0.019504813
1.2934192 0.20146833 0.35514432 0.6173513 -0.12490779 0.101800725 0.39717737 -0.29991886
0.104978755 -1.0113436 0.22017625 -0.42914712 0.0736276 -0.98962975 -0.5267721 0.3800669
-0.6364226 -0.3363438 0.06741303 -0.8883169 -0.45171162 -1.1094536 -0.46186575 -0.6907558
-0.6110979 -0.11741149 -0.36996862 0.018571578 -0.710398 -0.9556444 -0.34513286 -0.44386816
-0.05633585 0.23374924 -0.37118453 0.52983695 0.056603663 0.24500054 0.3222942 0.054361418
-0.031902246 -0.21503435 -0.43581355 -0.18557908 -0.3113556 -0.91743785 -0.93435615 -0.101947956
-0.24038042 0.4986881 0.7164012 -0.29628706 -1.4690274 0.83036786 -0.5778822 -0.89779186
-0.55706036 0.16486248 -0.878205 -0.021139996 -0.56614643 0.28903285 0.07643072 -0.011623414
-0.76779634 -0.15739292 0.24808314 0.30096903 -0.28670934 0.1992557 0.12798478 -0.2458754
0.704375 -0.3348012 -0.27731815 -0.48588195 -0.48054338 -0.15546393 -0.10311869 -0.57728213
-0.9390813 -1.1197678 -1.2377789 -1.1808391 -0.0033737808 -0.5928648 0.038382288 0.20559368
-0.18968299 -0.3969019 0.3708518 -0.0748912 -0.18218973 0.17338674 -0.23388983 -0.46092296
00000000: fcfa 163f 2357 9abf c641 47bf e5d6 6ebe
00000010: 4b8c 05bf e6fc 11bf 1119 2c3f 8650 22bf
00000020: f6a3 12bf 96bb b3bf 142a 6fbf 2bf1 77bf
00000030: 70e4 d83d 9972 0cbf b317 d6bc 1340 10be
00000040: 375d aebe 1c53 3e3f ab70 1dbf d25d 013f
00000050: f9d6 163e fcc7 113e fad3 b83e f9f1 4f3e
00000060: 4470 1b3f a265 26be a438 90bf 28d9 703c
00000070: 1dde 213e 438b e33d 03b7 503e 432d 32bf
00000080: 6bc6 c73c 6c3e 01bf 2952 0a3f 6841 3abe
00000090: 4f84 ad3d b2d7 a13e d12c b9be 993d 4fbf
000000a0: 67b1 ebbe 0385 95be b404 eebe 2fbe a0be
000000b0: db4b ae3e 1567 3cbe 74ab 4abf 9942 9b3f
000000c0: d109 4c3c f99b d3be 0485 773e 330b b03e
000000d0: a681 023f c48c 7c3e 80e8 da3e c8d5 46bc
000000e0: 3710 88bd 8ba0 53be 040b 353c 0148 2dbe
000000f0: 0100 3d3f a1c5 a53d e012 383f 689b 393e
00000100: 3d06 9cbe 1cab 803d ff2e 18bf f263 d8bd
00000110: ff68 58be 68ed 8dbe 20ba 3f3e 6d66 0b3f
00000120: bc1a 313e 9d55 96bc 6db5 cb3e 585e cabe
00000130: 2154 a2be 15e0 4bbd f0ae 84be 1f4b d8bc
00000140: 9881 0dbe c399 3abd a1da 23bf bf05 f8be
00000150: d567 6dbe e540 12bf d727 3fbb d094 1bbd
00000160: d837 37be 2bcb d43e 93ba 00be 940a 2fbe
00000170: 82e9 2d3d 9d2a 613e 7049 753e f9e8 d33e
00000180: dcce 9fbd e93a fdbe 5d69 263e e126 5fbe
00000190: 2630 393d 0eb8 1a3f ade8 633f 702d 48bf
000001a0: 30eb 743e 2656 593e 28c7 cfbd fcbb 833e
000001b0: 02fe 1f3f b804 f2be 8f36 e0bd 9bbb ecbe
000001c0: 5f1b d8bd 9ccf 573e 1c6d 0abf 9c45 183f
000001d0: 94eb c93e 2d46 6abe fed4 e1bd 7774 9abf
000001e0: dd05 82be ad71 1e3c c661 4b3d be30 a03e
000001f0: 3598 34bf a50e aabe 126f 9bbe 6eb9 fb3d
00000200: 0863 87bd 0c9f 433e 938d 07bf 4550 073e
00000210: baed 723f 5bcb 64bf 2946 2fbf 1911 26bd
00000220: 12c1 7bbd 7413 523d 65df 9f3c 3dfc a43e
00000230: 1286 393d 29a8 bb3b 2c7a 81be 6f69 a2bb
00000240: e17b 20bf 208a 3bbf 8777 aebe 34fc 5ebd
00000250: c0c4 723e c09a 95be 7326 78bd e91d e23e
00000260: 4e60 1f3e b1e0 22bf 4d1f 223d 7505 c0be
00000270: e6cd 33be 9fa5 98bc a476 adbe 8fc8 9fbc
00000280: c38e a53f b74d 4e3e 7ad5 b53e bc0a 1e3f
00000290: a8cf ffbd e67c d03d d55a cb3e f78e 99be
000002a0: 1aff d63d b573 81bf e275 613e 2cb9 dbbe
000002b0: 11ca 963d 6058 7dbf 89da 06bf 2198 c23e
000002c0: 97ec 22bf 4135 acbe d80f 8a3d bd68 63bf
000002d0: bf46 e7be 9302 8ebf ab79 ecbe 5fd5 30bf
000002e0: e970 1cbf 6f75 f0bd 876c bdbe 6c23 983c
000002f0: a5dc 35bf 1da5 74bf 41b5 b0be b042 e3be
00000300: 6cc0 66bd f65b 6f3e e60b bebe 65a3 073f
00000310: 3ed9 673d 6ce1 7a3e bf03 a53e 14aa 5e3d
00000320: eeab 02bd f731 5cbe f422 dfbe 7108 3ebe
00000330: 006a 9fbe 35dd 6abf f731 6fbf 17ca d0bd
00000340: 4926 76be 0c54 ff3e 1266 373f f0b2 97be
00000350: 1709 bcbf fd92 543f 16f0 13bf b0d5 65bf
00000360: 829b 0ebf b6d1 283e 0bd2 60bf c92d adbc
00000370: f9ee 10bf 1dfc 933e b687 9c3d 2270 3ebc
00000380: 4d8e 44bf 9c2b 21be 8209 7e3e 9d18 9a3e
00000390: 91cb 92be b009 4c3e 710e 033e c3c6 7bbe
000003a0: ec51 343f 106b abbe a5fc 8dbe 85c5 f8be
000003b0: c809 f6be f031 1fbe e42f d3bd c3c8 13bf
000003c0: a267 70bf 8d54 8fbf 8a6f 9ebf bc25 97bf
000003d0: a61a 5dbb fdc5 17bf bf36 1d3d 2687 523e
000003e0: 423c 42be ba36 cbbe 4ae0 bd3e 8f60 99bd
000003f0: f28f 3abe 4b8c 313e d180 6fbe 18fe ebbe

195 f4 [2, 512, 128]
0.20185526 -0.11434322 0.11316937 -0.11549295 -0.4297028 1.1603377 0.32546026 0.79753876
-0.05441975 -0.759997 -0.14963791 0.06970785 -0.000424451 0.19860496 -0.64701724 0.36829814
0.0016245949 -0.81911016 0.32186854 0.14857474 2.681566 -0.3032158 -0.14884982 -0.32582724
0.09339649 -0.7967738 -0.400462 0.07585265 1.2268392 -0.017452791 0.32665598 -0.92436457
-1.0223399 -0.35364416 0.14228325 0.8021966 -0.84442997 0.37607658 -0.5676701 0.42306194
-0.18039621 0.125614 -0.27799264 -1.2903947 -0.7646822 0.3894246 0.80469435 0.36906803
0.2876397 0.599173 1.3093026 0.6402467 -0.47123954 -0.095601246 -0.026459143 -0.19636284
0.20843516 1.1174514 0.38161072 -0.7236029 -1.0179783 -0.46146515 0.3121929 1.0124484
0.518755 -0.123262644 -0.25127068 -0.5427051 0.55538476 -0.043603517 -0.41765267 -0.4177544
0.20371509 -0.051797684 0.79121053 -0.55593395 0.2691196 -0.7722322 0.4111427 0.18152295
0.063821815 -0.30504388 -0.7416759 -0.6009749 0.18885809 0.6736172 0.79034376 1.1213754
-0.97546905 0.5011133 0.36415496 0.9888446 0.4199423 -0.34990722 -1.0292069 -0.32715258
0.6131748 0.25568753 -1.1952823 -0.90413576 0.15984446 0.007342126 -0.019989144 0.18314631
-0.01808978 -0.34127963 -0.09791755 -0.023390638 0.19545875 0.13245943 0.03169158 0.08677114
0.65329945 -0.6179663 -0.016319895 -0.96316725 -0.008624042 0.6744779 0.4263759 -0.2388499
0.25558946 0.5933688 -0.8351891 -0.06599353 0.069922395 -0.37440604 -0.077374205 0.19168329
-0.9435091 0.517971 0.03899512 -0.39205372 -0.04792602 0.4485649 1.067985 -0.08622741
0.25068447 0.63187087 -0.115685016 0.23342003 0.01242864 -0.8018308 0.020516466 -0.14805791
-0.09011472 -0.19241945 -0.33648244 -0.8819151 0.012184294 0.6029362 -0.04394788 0.383498
0.673068 -0.44485962 -0.09191754 0.17294656 -0.5455759 -0.24666087 -0.13116491 -0.42725492
0.05097036 0.54586744 -0.050106533 0.08098304 0.59482163 0.04006131 0.22636057 -0.46484277
-0.18678059 -0.26412126 0.12329197 -1.2702699 -0.61786175 0.77291334 0.10755925 0.67288184
-0.01741539 -0.49340338 0.15788332 -0.092004046 0.0059329076 -0.29681766 -0.28256145 0.39343002
0.055024922 -0.14653586 -0.52125037 -0.1408438 0.999567 -0.7400685 -0.42946106 0.42872855
-0.45356143 0.09524385 0.9302281 0.076251745 -0.28110215 0.4758937 -0.06727233 0.8789267
0.49474803 0.32100564 -0.22176932 1.043677 -0.5080423 -0.33801192 -0.79853445 0.73858625
-0.93337256 0.75055087 -0.32969964 0.4615274 0.22030562 -0.6084684 0.4175704 -0.18843217
0.13639 0.55211097 -0.34919912 -0.19364168 0.11943198 0.48722202 -0.15096189 -0.48710775
0.48633644 0.65593743 -0.6315421 0.95214295 0.5268828 -0.3992989 0.14658144 1.1955884
0.3167186 0.1513873 0.34564656 0.13084541 0.3086675 -0.32471213 0.21720624 -0.068870984
-0.6239536 0.015575891 0.14150178 -0.58938855 0.3757311 -0.3799275 0.43833512 0.40124065
-0.31918097 -1.0244409 -0.47406864 0.24220419 0.62663776 0.18321542 0.19178918 -0.1969994
00000000: 25b3 4e3e c72c eabd 58c5 e73d 9187 ecbd
00000010: 0102 dcbe f285 943f baa2 a63e 802b 4c3f
00000020: 3ee7 5ebd 2a8f 42bf ae3a 19be fdc2 8e3d
00000030: d988 deb9 195f 4b3e eca2 25bf 9391 bc3e
00000040: 5cf0 d43a 34b1 51bf f4cb a43e fa23 183e
00000050: c79e 2b40 1a3f 9bbe 166c 18be d4d2 a6be
00000060: a946 bf3d 5ef9 4bbf 5b09 cdbe a258 9b3d
00000070: 1109 9d3f 28f9 8ebc 743f a73e 28a3 6cbf
00000080: 09dc 82bf d910 b5be b3b2 113e c25c 4d3f
00000090: 902c 58bf 1c8d c03e d452 11bf 939b d83e
000000a0: c9b9 38be f5a0 003e 0d55 8ebe a72b a5bf
000000b0: 36c2 43bf a962 c73e 7300 4e3f 7cf6 bc3e
000000c0: 8345 933e 6763 193f 3a97 a73f 35e7 233f
000000d0: 4f46 f1be 96ca c3bd d8c0 d8bc 5713 49be
000000e0: 0770 553e a608 8f3f 7b62 c33e 0a3e 39bf
000000f0: 1d4d 82bf 2945 ecbe bfd7 9f3e e997 813f
00000100: 21cd 043f 2071 fcbd 8da6 80be b9ee 0abf
00000110: b22d 0e3f 9a99 32bd 92d6 d5be e8e3 d5be
00000120: b09a 503e cf29 54bd c68c 4a3f b051 0ebf
00000130: 0bca 893e 02b1 45bf 4c81 d23e 27e1 393e
00000140: 03b5 823d b62e 9cbe 79de 3dbf 7ed9 19bf
00000150: 0464 413e 2d72 2c3f f853 4a3f 3b89 8f3f
00000160: 57b8 79bf f648 003f 8572 ba3e eb24 7d3f
00000170: ad02 d73e 0a27 b3be 0dbd 83bf 8b80 a7be
00000180: 06f9 1c3f 7ae9 823e 03ff 98bf 7175 67bf
00000190: 44ae 233e 3896 f03b 46c0 a3bc b58a 3b3e
000001a0: 0531 94bc 34bc aebe ff88 c8bd b99d bfbc
000001b0: 5726 483e 72a3 073e 08cf 013d 11b5 b13d
000001c0: a23e 273f 0a33 1ebf 4db1 85bc 2192 76bf
000001d0: db4b 0dbc 95aa 2c3f f14d da3e 1195 74be
000001e0: 9fdc 823e 05e7 173f f4ce 55bf 9e27 87bd
000001f0: 7933 8f3d 26b2 bfbe 5e76 9ebd a048 443e
00000200: d089 71bf bf99 043f 59b9 1f3d 44bb c8be
00000210: 134e 44bd 4caa e53e bcb3 883f ff97 b0bd
00000220: b759 803e 4ac2 213f 44ec ecbd a905 6f3e
00000230: 7fa1 4b3c c944 4dbf 2612 a83c 7e9c 17be
00000240: 118e b8bd 9b09 45be 6d47 acbe 30c5 61bf
00000250: a2a0 473c 075a 1a3f b102 34bd da59 c43e
00000260: 2f4e 2c3f a4c4 e3be 433f bcbd e718 313e
00000270: ddaa 0bbf ab94 7cbe 1850 06be 28c1 dabe
00000280: 4cc6 503d f8bd 0b3f 823c 4dbd 70da a53d
00000290: 3b46 183f 5417 243d 11cb 673e dfff edbe
000002a0: 6943 3fbe e73a 87be 8080 fc3d 3498 a2bf
000002b0: 302c 1ebf a6dd 453f 0648 dc3d fc41 2c3f
000002c0: b8aa 8ebc 5e9f fcbe 2aac 213e 9e6c bcbd
000002d0: d668 c23b 7cf8 97be e5ab 90be a96f c93e
000002e0: d061 613d 7f0d 16be aa70 05bf 5b39 10be
000002f0: 9fe3 7f3f 2175 3dbf 52e2 dbbe 4f82 db3e
00000300: 3439 e8be 350f c33d 6e23 6e3f e029 9c3d
00000310: 9fec 8fbe 57a8 f33e 13c6 89bd 5701 613f
00000320: 9d4f fd3e da5a a43e 7f17 63be 3597 853f
00000330: 0f0f 02bf e60f adbe c16c 4cbf fd13 3d3f
00000340: 81f1 6ebf 1a24 403f 64ce a8be 524d ec3e
00000350: cc97 613e 96c4 1bbf cacb d53e 5df4 40be
00000360: d2a9 0b3e 2557 0d3f 3aca b2be 014a 46be
00000370: c198 f43d 2a75 f93e c195 1abe 3066 f9be
00000380: 1701 f93e 84eb 273f beac 21bf a4bf 733f
00000390: cbe1 063f e870 ccbe 7219 163e 0a09 993f
000003a0: f128 a23e 4605 1b3e 96f8 b03e 57fc 053e
000003b0: ab09 9e3e ab40 a6be 506b 5e3e 3b0c 8dbd
000003c0: 6cbb 1fbf 0632 7f3c d8e5 103e 2be2 16bf
000003d0: d45f c03e db85 c2be 766d e03e 6a6f cd3e
000003e0: b06b a3be e120 83bf 20b9 f2be 6004 783e
000003f0: 556b 203f d39c 3b3e 6264 443e 36ba 49be

out.bias f4 [2]
-0.060702343 0.057910275
00000000: 05a3 78bd 5333 6d3d

out.weight f4 [2, 256]
-0.14331625 0.3565987 3.570086 0.11355481 -0.018365908 -0.13839576 0.77934045 -0.049930394
0.031027228 0.005740836 -0.42654884 0.3578918 0.024513146 0.13168453 0.07313616 0.011229394
-0.29017776 -0.010761333 -0.09265551 -0.046044946 -0.0025943334 -0.20300333 0.053388663 -0.024611656
0.062067363 0.01679262 0.084756516 -0.10928292 -0.12637772 0.0123096295 0.22061932 -0.0848471
-0.09728345 -0.13834046 0.1594498 -0.014762946 -0.014531998 -0.08819828 -0.057627067 -0.29740685
-0.08483752 -0.27903032 -0.1463265 0.16826035 0.08899049 -1.0592529 0.04761728 0.033794254
0.046507195 -0.1338224 0.07436726 -3.065647 -0.1387741 -0.7030371 -0.13658449 0.06951096
-0.2287562 0.4174899 -0.0026643823 0.44396847 -0.11615306 -0.12567928 -0.0671484 0.14493458
-0.30451572 0.058623556 0.05661019 -0.4096763 1.0405927 0.40308562 0.009750164 -0.9002153
-0.10166749 -0.110753655 0.2916464 -0.78344876 -0.13915394 0.47657165 -0.011078226 -0.14794074
0.101564 -0.08145719 0.05856504 -0.06970513 -1.469127 -0.17776798 0.20946327 -0.115302056
-0.057218906 -0.14062558 -0.032676116 -0.53286564 -0.009923337 -0.35328192 -0.058512717 0.23331706
0.06962089 -0.99323785 -0.18085274 -0.19670604 -0.014340874 -0.036232915 0.20970643 -0.1735016
-0.00648693 0.117502205 0.1359532 -0.315609 -0.0110010365 0.01993732 3.317463 0.01601634
0.06513748 0.007830521 0.21809109 0.087096624 -0.15261583 -0.01431592 -0.1341415 -0.31112257
-0.3572637 0.7304659 1.6169041 -0.069475316 -0.2696617 -0.21618554 -0.035156675 -0.030255118
-0.026097141 -0.04409907 0.040601254 -0.04731611 0.034609888 -0.04744433 0.019568041 -0.009478632
-0.03408716 -0.0024320392 -0.017437471 0.021824932 0.0100890845 0.010915787 0.010368111 -0.04631334
0.025653146 0.022294326 -0.010747194 0.0006743766 -0.024096094 -0.0034743235 -0.03146415 0.30611116
0.03451695 -0.037753295 -0.014435999 0.0323186 0.0074248444 -0.01637804 -0.026004791 -0.004743942
-0.014353267 -0.0145264305 0.041814867 -0.009404048 -0.03942519 0.01179824 0.0011510032 0.0026618773
-0.012609178 0.015959026 0.0025184029 -0.03260308 0.023800777 0.034416243 -0.0067471624 -0.011507074
-0.0015009259 0.03718293 -0.009571733 -0.008124648 -0.025757628 -0.046129566 0.026503991 0.006698982
0.0026677249 0.01625399 0.006084499 -0.014077323 0.01697569 -0.021074442 -0.027095158 0.0039038423
-0.033655472 -0.0031133029 0.031988636 -0.007109573 0.038258128 0.0025651525 0.043250725 -0.012283237
0.010713939 0.0029649555 -0.04801422 0.009373848 -0.0067744534 -0.007824487 0.015727552 0.03474988
0.003133909 0.03377106 0.053969648 -0.041095763 -0.044773098 -0.019685753 0.036339607 -0.007681525
0.0016861989 0.02411799 0.025509797 0.018841822 0.009194695 0.02575891 -0.028433084 0.008928531
-0.01922401 0.019890243 0.022388699 -0.03371622 -0.016398175 -0.030879507 -0.0021970824 0.05379154
-0.006767589 0.03344924 -0.03684244 -0.008988331 -0.003854232 0.02850203 0.008828995 0.022779133
0.024723772 0.00982426 -0.008934808 0.034349695 -0.038773514 0.004238449 -0.009029838 -0.004778872
-0.031780884 0.010885609 0.012409461 -0.010035433 -0.046914306 0.006562886 -0.046585236 -0.021695623
00000000: 7fc1 12be 1b94 b63e 4a7c 6440 6d8f e83d
00000010: 1a74 96bc 9eb7 0dbe db82 473f d083 4cbd
00000020: d02c fe3c 9f1d bc3b 9c64 dabe 983d b73e
00000030: cbcf c83c 4fd8 063e 69c8 953d 7efb 373c
00000040: 2e92 94be 4d50 30bc 2cc2 bdbd a099 3cbd
00000050: b105 2abb 1be0 4fbe 12ae 5a3d 629e c9bc
00000060: 593a 7e3d ad90 893c d394 ad3d b9cf dfbd
00000070: 2969 01be 54ae 493c 08ea 613e 51c4 adbd
00000080: 8c3c c7bd 1fa9 0dbe cf46 233e 49e0 71bc
00000090: 9e17 6ebc 4da1 b4bd 5c0a 6cbd b645 98be
000000a0: 4bbf adbd 10dd 8ebe 9dd6 15be 714c 2c3e
000000b0: a540 b63d 9995 87bf 560a 433d d86b 0a3d
000000c0: 547e 3e3d bd08 09be dd4d 983d 8f33 44c0
000000d0: cc1a 0ebe 3dfa 33bf cedc 0bbe c35b 8e3d
000000e0: 113f 6abe 3cc1 d53e eb9c 2ebb d64f e33e
000000f0: a8e1 edbd 12b2 00be 1a85 89bd bb69 143e
00000100: 7ce9 9bbe 411f 703d 16e0 673d 18c1 d1be
00000110: 2432 853f 3d61 ce3e 27bf 1f3c 8374 66bf
00000120: 0c37 d0bd d0d2 e2bd ad52 953e 1990 48bf
00000130: 5f7e 0ebe 3301 f43e 7381 35bc c77d 17be
00000140: c900 d03d 07d3 a6bd e5e1 6f3d 90c1 8ebd
00000150: 5b0c bcbf cf08 36be 8a7d 563e 7c23 ecbd
00000160: 5f5e 6abd 2700 10be 64d7 05bd e269 08bf
00000170: 7e95 22bc 5ee1 b4be 08ab 6fbd abea 6e3e
00000180: 6695 8e3d d644 7ebf 7631 39be 4f6d 49be
00000190: fcf5 6abc f768 14bd 48bd 563e 67aa 31be
000001a0: 5090 d4bb ffa4 f03d 5137 0b3e 8197 a1be
000001b0: b13d 34bc 9753 a33c 5051 5440 b334 833c
000001c0: cd66 853d 964b 003c 4553 5f3e b75f b23d
000001d0: 5347 1cbe 528d 6abc 645c 09be 754b 9fbe
000001e0: 45eb b6be d0ff 3a3f b7f6 ce3f 1349 8ebd
000001f0: 1911 8abe be5f 5dbe 7200 10bd 95d9 f7bc
00000200: acc9 d5bc 3aa1 34bd 804d 263d 8ace 41bd
00000210: 19c3 0d3d fc54 42bd 284d a03c 444c 1bbc
00000220: fa9e 0bbd d962 1fbb 07d9 8ebc 33ca b23c
00000230: b04c 253c 21d8 323c 02df 293c 0fb3 3dbd
00000240: 8c26 d23c 97a2 b63c 0015 30bc a6c8 303a
00000250: 2c65 c5bc 7ab1 63bb 8de0 00bd 9aba 9c3e
00000260: a561 0d3d 33a3 1abd f884 6cbc 8260 043d
00000270: 1c4c f33b 3d2b 86bc 0008 d5bc 1273 9bbb
00000280: f729 6bbc 4400 6ebc 1146 2b3d 7013 1abc
00000290: 4f7c 21bd 684d 413c 42dd 963a e472 2e3b
000002a0: ba96 4ebc 81bc 823c ca0b 253b cf8a 05bd
000002b0: d9f9 c23c 0cf8 0c3d 4d17 ddbb 2b88 3cbc
000002c0: b7ba c4ba 214d 183d c2d2 1cbc 3e1d 05bc
000002d0: a901 d3bc 5bf2 3cbd e61e d93c 2283 db3b
000002e0: ffd4 2e3b 1627 853c 7a60 c73b 92a4 66bc
000002f0: 9a10 8b3c 4fa4 acbc aaf6 ddbc 9bd7 7f3b
00000300: 52da 09bd 8e08 4cbb 8406 033d 6cf7 e8bb
00000310: 8eb4 1c3d 1e1c 283b ac27 313d a13f 49bc
00000320: 8489 2f3c b34f 423b 8faa 44bd c594 193c
00000330: 3cfc ddbb 4732 00bc 11d7 803c e455 0e3d
00000340: 4562 4d3b 8653 0a3d 470f 5d3d 0854 28bd
00000350: ff63 37bd 0444 a1bc d7d8 143d 4db5 fbbb
00000360: 7203 dd3a 1793 c53c ecf9 d03c 2a5a 9a3c
00000370: 59a5 163c 5a04 d33c 80ec e8bc f948 123c
00000380: ac7b 9dbc ddf0 a23c 8168 b73c 051a 0abd
00000390: 7755 86bc 05f7 fcbc edfc 0fbb 8554 5c3d
000003a0: a7c2 ddbb 1202 093d 19e8 16bd cb43 13bc
000003b0: 4897 7cbb 177d e93c 7da7 103c 4e9b ba3c
000003c0: 8289 ca3c eff5 203c 4d63 12bc 44b2 0c3d
000003d0: fad0 1ebd b0e2 8a3b e3f1 13bc 1598 9cbb
000003e0: ac2c 02bd 8e59 323c 0d51 4b3c a86b 24bc
000003f0: 3729 40bd 7a0d d73b 29d0 3ebd 05bb b1bc
